actor_parameters.pt (torch_old, 541411 bytes, 6 tensors)

fc1.weight f4 [400, 33]
00000000: 5097 913d f099 1c3b b336 ae3d 813c ca3e
00000010: c516 31be 2c1b 14be 50d5 3cbe c0b8 ba3c
00000020: d8e1 9a3d 8bc0 efbd 15ed 07bc 5167 7bbd
00000030: 165e 113d 555e 563c 4ffd cb3c 6926 15be
00000040: 8633 c33d 1b40 1cbe f57d a43e 8f4f 153c
00000050: a85c 07bd 19cf 43bc fe9c fa3c 0dbf 7c3d
00000060: 6f74 bfbd 3661 283d caa7 7e3e 7ecc e93d
00000070: a7a7 653e e890 32bc 1e7a 36be 181a e73b
00000080: 0b38 6dbf 251d 8e3e 43ce 31be 9c2a 37be
00000090: 6e22 dbbd 110f 12bd 12ec 06be 0d45 68be
000000a0: 7f7d 933d 7e39 933e 6dfb 0c3e f9fa 153e
000000b0: c735 87bc a777 94bc 8f30 24be 17b9 b73e
000000c0: 2418 6fbe 7008 9a3e 788b aa3e 7e1f e7bd
000000d0: 72d2 6d3d a32f 78bc 16c7 ee3d 9110 903d
000000e0: 0c89 6abd 8c6f 073e bdb3 50bc dcf2 98bd
000000f0: 0970 40be 380e c2bc 49e6 1b3d 39bc 5a3e
00000100: 9243 b53c aa71 a43d 65a6 c6bd 5b99 d43d
00000110: 9217 a8be 3bcb 17be 016c 0a3d dd71 d5bd
00000120: c71f ffbc 5cab 38be 7643 933e 4ba3 263d
00000130: e9a6 a4bd b145 5abd 392a ff3d c9bd 34be
00000140: 98ba c1bd c6d7 453d 0e1c 963e 9f71 66be
00000150: 45df eb3e ba92 153c 47df 77bd c67b 343e
00000160: 7426 453c e7a8 e03d ba0e cbbd 5c49 073e
00000170: dc31 143e a34b 883e 55d7 553d 7dd7 dcbc
00000180: f033 33be 6724 043d 6d5e b9be 37d5 1abe
00000190: f414 033e 15d1 cc3d ccd8 053e 6cd7 32bf
000001a0: 1bfe 48be bc84 623e f507 40be 39bb c13d
000001b0: 0c68 f0be 733b febd a8ee 2fbd 23a3 3f3e
000001c0: 6fa7 7e3c 67bc 923c b85a 8abc 4660 af3d
000001d0: 4dba 31be ffe7 b23d a946 fd3c 2053 0fbe
000001e0: 0e06 b03d 5722 47be c97c 1c39 a3f1 873d
000001f0: b716 4d3e 35a1 cc3d 285f 913e e530 06bd
00000200: 6911 423d b1b3 95be 9ba5 1ebd 8f7e 293f
00000210: ca1f c33d cb6d 06bd e187 8b3e 57c5 8b3d
00000220: b967 513e 0748 8f3e 94a9 20be 7b7b 6ebd
00000230: 0302 3dbe d5e6 33be e7a2 65bd 9603 55bd
00000240: 2d8f 88bc 34d5 9f3d 70e5 543d a7f7 d9bd
00000250: 3d61 a4be 7b14 623d 2734 0d3d 7a56 793e
00000260: 273f d13d 9ca6 15be 8335 193d a607 153d
00000270: 43ad 003d 6fb7 d8bd f1be 83bd f1c6 ac3d
00000280: d457 88bd e0e2 d6bc ef8e d3bd 26ce a73c
00000290: 0644 a43f 9df1 a83d 0a4b 473e b162 923d
000002a0: 54a8 cebe 4f85 ec3e 4ea5 283e e3a5 38be
000002b0: 3e9d eabd ba73 1dbe 0587 b0bd 8481 b9bb
000002c0: 1ca3 a5bd 0439 e7bd 984e 25be 1681 d5be
000002d0: 3a70 9d3e 19be 5a3c d82f 5cbd c455 883e
000002e0: 7678 af3e 23b4 bebd e4f4 a3bc 2fcc 693d
000002f0: 0f92 87bd e701 bd3d 469b 0ebd 9890 46bd
00000300: 4b4e 1d3e 4e4e 08be 80e1 b8bb 2685 41be
00000310: 4867 33bc 27a5 ed3d b922 94bd 7076 a93c
00000320: d535 053e bdd8 b73e d626 54be 5312 6cbe
00000330: 701b 36be abac af3d 7bfd 3abd 65a0 163e
00000340: 13ae c23d fbb9 183e 2b00 873d 3f3d c2bc
00000350: 88a2 013d cad4 8ebe b8de f03d 9ce4 b13c
00000360: 1c04 1b3f 7a99 8fbd be45 ccbc 00a5 09bd
00000370: 89d6 b93d b75f 193d dfd6 4f3d 59b7 8c3d
00000380: 3647 333e d80e 2c3e 371b 8abd 007a 48bd
00000390: 850a 10be d1cb 1b3d 1e77 783e 98b2 2dbd
000003a0: 642d d53d b17b a7be b8e3 88be 75ad 0b3e
000003b0: da8d dc3d 84d7 9fbe bf33 77bd 5760 49be
000003c0: 0fd3 e43d ff42 0e3e cca2 eb3a e75a 2cbe
000003d0: 4803 10be 5fde 20be 52ef 063e 662e 923e
000003e0: c5ba 9d3e cdfa 743d 24b9 1dbe c693 173d
000003f0: 1191 afbe 9c45 37be c661 4d3c 9062 d4bc
0.07108939 0.0023895465 0.08506527 0.39499286 -0.17293842 -0.1446349 -0.18440747 0.022793174
0.075626075 -0.117066465 -0.008296271 -0.061377827 0.035490118 0.013084014 0.02490106 -0.14565434
0.09531312 -0.1525883 0.32127348 0.0091132065 -0.03304735 -0.011951231 0.030592438 0.061705638
-0.0934838 0.041108333 0.24868694 0.11415957 0.22427236 -0.010898806 -0.17820022 0.007052671
-0.9266364 0.2775661 -0.17363839 -0.17887348 -0.10699926 -0.0356589 -0.13175991 -0.22682591
0.07201671 0.287548 0.13767786 0.1464652 -0.016505135 -0.018123461 -0.16034149 0.358834
-0.23349053 0.30084562 0.3330953 -0.112853035 0.058062024 -0.015148076 0.116590664 0.0703441
-0.057259604 0.13226146 -0.012738165 -0.07468197 -0.18792738 -0.02368842 0.038061414 0.21360864
0.022126947 0.08029492 -0.09699706 0.10380813 -0.32830483 -0.1482362 0.033794407 -0.10422108
-0.031143082 -0.18034118 0.28762406 0.040683072 -0.08039648 -0.05328912 0.12459225 -0.17650522
-0.09459418 0.04830148 0.2931828 -0.2250428 0.4606878 0.009129221 -0.06051567 0.17625341
0.012033094 0.109697156 -0.09914918 0.13211578 0.14472145 0.26620206 0.05220731 -0.026958222
-0.17500281 0.03226128 -0.36204854 -0.15120398 0.12800962 0.10000817 0.13070983 -0.6985996
-0.19628184 0.22120947 -0.18753035 0.09459538 -0.4695438 -0.12413683 -0.04295221 0.18714575
0.015542849 0.017912103 -0.016888961 0.085632846 -0.17356224 0.08735656 0.030917482 -0.13996553
0.08594905 -0.19446693 0.00014923805 0.066378854 0.20028196 0.09991685 0.2839291 -0.032761473
0.047379885 -0.29238656 -0.038732152 0.6620874 0.09527548 -0.03281955 0.27252105 0.06824749
0.20449723 0.2798464 -0.15689689 -0.05822323 -0.18457799 -0.17568524 -0.05606356 -0.052005373
-0.016669834 0.07804337 0.05197662 -0.10642939 -0.32105437 0.055195313 0.034473564 0.24349394
0.102171235 -0.14614338 0.03740455 0.036384247 0.031415235 -0.10581862 -0.064329036 0.084363826
-0.06657377 -0.02623123 -0.10329997 0.020484041 1.2833259 0.08249209 0.19462219 0.0714773
-0.403628 0.46195456 0.16469309 -0.18032031 -0.11455773 -0.15376177 -0.08619503 -0.0056611914
-0.08087751 -0.11290172 -0.16143262 -0.41700047 0.30749685 0.013350987 -0.053756565 0.26627934
0.34271592 -0.09311702 -0.020014234 0.05707949 -0.06619655 0.092288785 -0.03481605 -0.04847774
0.15361898 -0.13311121 -0.005642116 -0.18898448 -0.010949917 0.11603766 -0.07233185 0.020686358
0.13008817 0.35907546 -0.2071794 -0.23053865 -0.17783904 0.08577856 -0.045651894 0.14709623
0.09505858 0.14914696 0.06591829 -0.023710845 0.031649143 -0.2789672 0.1176123 0.021715455
0.60553145 -0.07011695 -0.0249356 -0.033604622 0.090741225 0.037444796 0.050742026 0.06870908
0.17507634 0.16802537 -0.06743472 -0.048944473 -0.14066513 0.03803617 0.2426419 -0.04240665
0.10409048 -0.32711557 -0.26736236 0.13640387 0.107692435 -0.31219113 -0.060352083 -0.19665657
0.11173069 0.13892744 0.0017977594 -0.16831551 -0.14063752 -0.15709828 0.13177231 0.28551024
0.30806556 0.059809495 -0.15402657 0.037006162 -0.34290364 -0.17897648 0.012535518 -0.025925905

fc1.bias f4 [400]
00000000: b181 55be 3f06 8b3e 4356 74be 29cf a4be
00000010: c9c8 29bd 7e06 39be 5ac2 1fbe 1172 c0be
00000020: 4a4b d8be 273a f6bd 0269 54be 8866 b7bd
00000030: d855 52bd e00a 78be 1f41 5cbe 69a4 93be
00000040: 8c58 f1bd 5e22 5bbd 2f4e 89be c10a 7d3d
00000050: 53e8 2abe 191e b1be 90bd 89bd 8f2a 88be
00000060: 5907 8cbe 9a85 9cbe e8b0 59be c06f 89be
00000070: ff2d d8be f7e1 62be 4f9e 10be abac 93be
00000080: d05d 1fbe f5cb 2a3c 047f 20be 1853 27be
00000090: 0dde 37bc e662 82bd fe40 debd 86e8 c1be
000000a0: 9803 92be 63c8 82bd 104e 12be 4b9a 33be
000000b0: 84fa e9be be7b 83bb 8621 c6be db8b 57be
000000c0: f789 b8be a815 19be 2500 95be 6175 b8be
000000d0: e1e9 30be 5199 1bbd 2b2b b2be 39b4 44be
000000e0: f173 80be ad0d 5fba 082c 7ebe 71b3 b4be
000000f0: cf0e d7bd 11cd 463d 9379 9fbe 00cd 0abe
00000100: 5a36 a7be 4074 3abe 89df 97be d3a4 85be
00000110: bba9 a8be 68b0 07be 474d dfbd 49fe 59be
00000120: fdc6 77be 2666 c4be 57dc eebd d6eb a8bd
00000130: bcd3 34be 8009 9bbe 93a7 40be 325a b4be
00000140: 4486 44be 843a 82bd 6b3b 5ebe 435d 70be
00000150: 9f1c 3cbe 254b 77be 57bc 15be 1088 17be
00000160: 82d4 89be 5690 47bd 06f5 13be 25bc 06be
00000170: 55a2 5bbe 915b 3ebe 21e6 a2be f2ed 98be
00000180: 5ac7 1ebe 246d bebe a002 43be e21b bdbd
00000190: 7b70 25be ec4e a7be 007b ecbd b861 21be
000001a0: 7dc3 88be 030e 53be b0f1 acbe ba1a 79be
000001b0: 08ab 43be ca30 0cbe 3d7f 4abe 384c a5be
000001c0: 3fe5 dfbd 686c 003e 5726 9fbd 958e 78bc
000001d0: c601 3bbc 0b39 a0be d2dd 93bd 4018 1bbe
000001e0: 4bdd e1bc d678 5cbe 116e b3be c749 97be
000001f0: def0 2ebe dd1e fdbd 1ecd 38be d06a 39be
00000200: a350 4cbd 27ad 64be 0539 c5bd 6470 ddbe
00000210: aaf5 003e 5ffe eebd 44e8 c9be ed12 47be
00000220: 0ed4 50bd 02a0 4fbe c839 6ebc 8d25 a53c
00000230: c8a8 6ebe c347 6cbe 211a 71be 3f33 a2be
00000240: 2976 02be eff9 47be cafe d8bd c190 a13c
00000250: 7968 b9be eef1 68be 8441 9dbe 4375 2ebe
00000260: 3270 a03d 6f19 56be 398d 793d 5594 63be
00000270: 6de6 bbbe f65a efbe 331e b0be 41e8 f0be
00000280: d6ca a83c 8f0c 94be 31e5 7dbe bb57 a1be
00000290: 6b29 a1be 7f91 84be a6ad 74be 7773 83be
000002a0: a442 ea3c 7677 b1be 89a6 29bd c0b7 5abe
000002b0: 018f febd b128 0dbe b252 ad3c 174f 28be
000002c0: e070 aabe ee72 a9be 2901 90be 0139 2fbe
000002d0: 255f 5fbe acd8 8ebe 284b 8ebe c2e6 25be
000002e0: 8f58 40be 4d9a bfbd e250 a4be 481f 7fbe
000002f0: 9159 e0bc d326 d1be 21e3 583e b6c7 64be
00000300: e979 d73d e301 32be 18cd 91be ef0d bdbe
00000310: f902 90be 17e3 a6be 120c a3be b81e 00be
00000320: eb3b c0bc 9dae 87be d30c a0be 7296 63be
00000330: 8433 78be b358 82bd b1c2 e2be d78e 96be
00000340: dd66 00bf b87d 6abd 0b6e 813e f6dc 7dbe
00000350: df2a 79be 1131 62be 84cd cfbd 5b0c 4abe
00000360: 71f7 0ebe 4ea7 8dbd 168b 79bd ccaa 8ebe
00000370: c3a5 ba3c 5775 05be 2557 93be de83 41be
00000380: 77ee 6bbe 215e 9fbe 1438 95bd 127a c0bd
00000390: 2c72 a2be c22e aabe 9471 9abe 8db6 1fbe
000003a0: 53a2 b8bd 65be 44be 2bc0 4ebd 83de 78be
000003b0: 7dd2 ee3d 3e1d 80be c6df 2bbe c0da c9bd
000003c0: 4364 f1be 73f2 19bc 1c61 8abe bacd bcbe
000003d0: f059 3abd bb63 37be 1370 03be a36b 73be
000003e0: 6479 97be 05e3 823e 9066 873d d484 1a3e
000003f0: a08c d6be 7638 43be 3533 ffbc 38c4 abbe
-0.20850255 0.27153203 -0.23861031 -0.321893 -0.04145125 -0.18068883 -0.15601483 -0.37587026
-0.4224494 -0.120228104 -0.20743182 -0.08955103 -0.0513514 -0.24222898 -0.21509217 -0.28836372
-0.11784467 -0.053499572 -0.26817462 0.061777834 -0.16690187 -0.34593275 -0.06725609 -0.2659497
-0.27349356 -0.3057068 -0.2125889 -0.2684307 -0.42222592 -0.22156511 -0.1412289 -0.28842673
-0.1556313 0.010424604 -0.15673453 -0.16340292 -0.011222375 -0.0636652 -0.1085224 -0.37872714
-0.28518367 -0.06385877 -0.14287591 -0.17539327 -0.4569894 -0.004012554 -0.3869745 -0.21049444
-0.3604276 -0.14949667 -0.29101673 -0.36027053 -0.17276718 -0.03798801 -0.3479856 -0.19209374
-0.25088456 -0.0008508813 -0.24821484 -0.35293153 -0.105008714 0.04853541 -0.3114744 -0.13554764
-0.32658654 -0.18208408 -0.2966273 -0.26102313 -0.32941994 -0.13250887 -0.10903411 -0.21288408
-0.24197002 -0.38359183 -0.1166312 -0.08248107 -0.17658895 -0.30280685 -0.18813924 -0.35225064
-0.19191843 -0.06358817 -0.21702354 -0.23473077 -0.18370293 -0.24149759 -0.14622627 -0.14797997
-0.26919943 -0.048721634 -0.14448938 -0.13157709 -0.21448644 -0.18589617 -0.318162 -0.29869038
-0.15505734 -0.37192643 -0.1904397 -0.09233834 -0.16156189 -0.326774 -0.11546898 -0.15759933
-0.26711646 -0.20610814 -0.33778143 -0.24326602 -0.19108212 -0.13690487 -0.197751 -0.32284713
-0.10932397 0.12541354 -0.077709846 -0.015170713 -0.011413997 -0.3129352 -0.07220043 -0.1514597
-0.027571341 -0.2153047 -0.35044912 -0.29548475 -0.17084071 -0.12359402 -0.18046996 -0.18107152
-0.04988159 -0.22331677 -0.09630016 -0.4324981 0.12593713 -0.11669611 -0.39435017 -0.19440813
-0.05098348 -0.20275882 -0.014540143 0.020159507 -0.23306572 -0.2307425 -0.23545124 -0.31679723
-0.12740387 -0.19528936 -0.10595472 0.019722344 -0.3621252 -0.22748539 -0.30714047 -0.1703692
0.078338996 -0.2090814 0.060925696 -0.22224553 -0.36699238 -0.46749085 -0.3439804 -0.47052196
0.020604532 -0.2891583 -0.24794461 -0.31512246 -0.31476912 -0.25892255 -0.23894367 -0.2567403
0.02859623 -0.34661454 -0.041418586 -0.21359158 -0.124296196 -0.13785054 0.021157596 -0.1643642
-0.33289242 -0.33095497 -0.28125885 -0.17111589 -0.21813639 -0.27899683 -0.27791715 -0.16201308
-0.18783782 -0.093556024 -0.3209296 -0.24914277 -0.027386459 -0.40849933 0.21180393 -0.22341809
0.105212994 -0.17383532 -0.28476787 -0.36924693 -0.28127268 -0.3259513 -0.31845146 -0.12511718
-0.023466071 -0.26500407 -0.31259784 -0.22225359 -0.24238402 -0.06364574 -0.44289163 -0.29405853
-0.50156957 -0.0572488 0.2527927 -0.24791321 -0.2433276 -0.2208903 -0.10146621 -0.19731276
-0.13961579 -0.069166765 -0.06092366 -0.27864683 0.02278412 -0.13033043 -0.28777424 -0.1889796
-0.23040186 -0.31126502 -0.07286087 -0.09398283 -0.3172773 -0.33238798 -0.30164778 -0.15596981
-0.09015336 -0.19213255 -0.050476234 -0.24303631 0.11661241 -0.2502231 -0.16784582 -0.098561764
-0.47146806 -0.009396183 -0.27027214 -0.36875707 -0.045495927 -0.17909138 -0.12835722 -0.23771529
-0.295848 0.25563827 0.06611359 0.15089732 -0.41904163 -0.19064507 -0.031152347 -0.3354814

fc2.weight f4 [300, 400]
00000000: e615 96bc de27 88be 79f8 843d daaf c93c
00000010: 749d f0bc e7af 04be 0923 423d 2e85 993c
00000020: ff6c 0cbc 178a 90bd bde8 923e 15e2 58be
00000030: 9bad 693e fbf2 1a3e c0d6 433e 302c 91be
00000040: d8cc 943d 0030 a4bd 50fe db3d c722 35bf
00000050: 5ead 6c3c 6b7f 133e 2502 69bd 2747 053e
00000060: 5030 3f3e f343 e6be d7ad 16be 7b35 e53d
00000070: 635c 253e 6029 84bc 9071 febe 9437 89be
00000080: 2f15 95bc 5f3c a43d 3124 5d3e a365 bdbd
00000090: 8c38 783e 6414 a63c 7fb2 4f3d f414 57bd
000000a0: 13ce 1abc bd6f 2abe b5b8 8ebe 21f2 2e3e
000000b0: 9078 69be 5fd4 423e 0ec7 0a3e 6569 e63c
000000c0: b834 613c 1ba1 bb3d 3920 8c3e 47d7 aabe
000000d0: 3b7c d83d 3755 93be 9492 263e f811 23bd
000000e0: 3ef6 77be bdf4 73be b3e1 f4bd 1500 453b
000000f0: 4bd2 003b 41db 49be bd35 3f3e c5bc 50be
00000100: 05b6 39bd 0f03 803e 3812 edbe 99f4 253e
00000110: a9ff f93c 6ca1 4e3e a533 c7be 256a 88be
00000120: 9e44 f43d 6768 263c 8562 1ebf b29b 31bd
00000130: 1db4 68bc 058f e7bd d99a 87be 5e2c c03d
00000140: ca9a 9d3b afc1 16be b89c 93be a2de 3ebe
00000150: 713c 36be ed2c c3bd ce8b d4bc 0c1b 45be
00000160: 4ba1 d6bd 21bb 573e 3a9f 2bbd 5cd7 00be
00000170: 53f0 29bd 37bd 693e 3bf8 97bc 298b 9c3e
00000180: 7e65 fbbc 877e 57be 427d 813e 9020 083e
00000190: b21f c33c 4ac0 283d a838 103e 9e13 1e3e
000001a0: ffb8 633e 6f21 1e3e 834d 83be 7040 233e
000001b0: 0415 c6be b76d 60be 6267 d83c 7458 a8bd
000001c0: ef91 a83d 452e 25be 5065 aebe 02c6 49be
000001d0: d16c 8f3c 083e a9be 8bef f63c 08e3 a8be
000001e0: 6804 dcbe e4e3 7fbe 617f 60bc 3690 f53d
000001f0: 6d70 6cbe 7dbe 153e 3249 953d 3b19 b8bd
00000200: cec9 2cbe 5902 483e 0a5d debd 0950 b7ba
00000210: 26b4 0cbe 2b28 d3be 8b87 ddbd f192 14be
00000220: febd 8dbd 46b7 97bd cfea 9e3b 0f40 98be
00000230: a82d 113e a690 f5bd 5a16 bbbd a3f6 413e
00000240: 5d91 713d 98fa 813e b42b c43d f5ce f2be
00000250: c714 233c 588e 543e 27ce 9fbe e104 92be
00000260: fd2b 2d3d e513 f83c 7c01 07bf 0452 8ebd
00000270: 1591 bbbd 0357 1e3e 32e3 5fbd 5fc9 0dbb
00000280: a551 3e3d eaa4 0f3e ce0e 01be ce3d e6be
00000290: 73eb ac3e abf9 863e 0a31 3d3d 3b16 3f3c
000002a0: 5444 6fbe d85a eebd 8fcb 21bb a6e7 4bbe
000002b0: 2a85 b3bb 8068 91be 82f4 f0be 8846 8d3d
000002c0: 6e00 01be a272 33be 8840 d4bd 1dc1 82be
000002d0: 1743 4ebb 5627 b13d 8565 86bd f155 663e
000002e0: 1598 d03b ac7d ecbe 514d 0e3e 2d17 913e
000002f0: 0e2d 4f3d 9dd4 133e c31c 13be e9a3 0cbf
00000300: 6a83 75be b995 8abe f80e f23d e29d a2be
00000310: ac3d 0ebc 88e0 21bd 80c5 61be ea85 6ebe
00000320: bccd e33c 3f2e e7bc 3964 2d3d f7c8 ca3c
00000330: 8014 e1be 184d 873b 1f7c 053e eedf 0d3e
00000340: 8ac8 b43c 5f41 7f3d 81c8 ccbe ee96 0a3d
00000350: 2c0a cf3d c14e d8be a887 473e 446c 473c
00000360: 6a35 2cbe f997 4f3d 65c9 71be bcb7 78be
00000370: 0e30 b0bd b6c0 f5be fc79 c6bb d8e4 873d
00000380: ad43 82be da7c d1bd bfa3 25be ed74 7a3c
00000390: e322 5abc d9e3 10be aca6 473e bae0 b33d
000003a0: 5ecd d5bd d798 173e 26f8 06be 4398 493e
000003b0: 11fa d7bd 15af d3bc eee7 60bd d147 223d
000003c0: 70da 96be e6c6 3ebe 5ad8 e7be d4d7 0ebe
000003d0: 4e40 2abe ff0a 01bf 0d1f 253d 6a43 793d
000003e0: 2253 443e 7b8e 22be 2eec a2be b512 8fbd
000003f0: d6e2 b6bd 705b 0dbe 68ce 70be 10ac 2bbe
-0.018320989 -0.26592916 0.06492705 0.024619985 -0.029371955 -0.12957726 0.047396693 0.018740263
-0.008570909 -0.070575885 0.2869319 -0.21179993 0.22820131 0.15131752 0.1912489 -0.28354025
0.07265633 -0.08016968 0.10741866 -0.7075619 0.014445631 0.14404075 -0.05688681 0.13015424
0.18670774 -0.44973716 -0.14714752 0.11191841 0.16148524 -0.01613301 -0.49696016 -0.26800215
-0.018198578 0.08019327 0.21595837 -0.09247901 0.24240321 0.020273395 0.050707337 -0.052510217
-0.009448546 -0.16644187 -0.27875295 0.17084552 -0.22799897 0.19026326 0.13552496 0.028126428
0.013745479 0.09161588 0.27368334 -0.3336737 0.1057057 -0.2877595 0.16266853 -0.03981206
-0.24215028 -0.23823829 -0.11957111 0.0030059863 0.0019656594 -0.19712545 0.18672843 -0.2038451
-0.045339603 0.25002334 -0.46302962 0.16206588 0.030517416 0.20178765 -0.3890659 -0.26643482
0.1192715 0.010156727 -0.6186908 -0.043361373 -0.014203099 -0.11306576 -0.26485327 0.09383462
0.004809712 -0.14722322 -0.28830504 -0.18639615 -0.17796494 -0.09530053 -0.02594557 -0.19248599
-0.10479983 0.21067478 -0.041899897 -0.12582153 -0.041488957 0.22826086 -0.018550983 0.3057492
-0.030688044 -0.2104436 0.25290877 0.13293672 0.023818824 0.041199006 0.14084113 0.15437171
0.22238539 0.15442441 -0.25645074 0.1594255 -0.3868791 -0.21916853 0.026416484 -0.08219996
0.082309596 -0.16130932 -0.3406167 -0.1970444 0.017507942 -0.3305514 0.03014352 -0.3298571
-0.42972112 -0.24989277 -0.0137022445 0.11990397 -0.23089762 0.14623447 0.072893515 -0.08989187
-0.16873857 0.19532146 -0.108575895 -0.0013985644 -0.13740596 -0.41241583 -0.108168684 -0.14509179
-0.06921004 -0.074080035 0.0048497687 -0.29736373 0.14177573 -0.1199048 -0.091351226 0.1894174
0.05897652 0.253865 0.09578648 -0.4742352 0.009953684 0.20757425 -0.3121197 -0.28519347
0.04227828 0.030282924 -0.5273664 -0.06949237 -0.091585316 0.1546288 -0.05466003 -0.002163492
0.04646458 0.14027753 -0.12603304 -0.44969028 0.33773383 0.26362357 0.046189345 0.011663015
-0.23365909 -0.11638421 -0.002468798 -0.19912586 -0.005478521 -0.2840004 -0.47061545 0.068982184
-0.1259782 -0.17524198 -0.10363871 -0.2553796 -0.0031473094 0.08650081 -0.06562332 0.22493722
0.006365786 -0.4618963 0.13896681 0.28337994 0.050580077 0.14436574 -0.1436644 -0.5493761
-0.23975912 -0.27067354 0.11819261 -0.3176108 -0.008681696 -0.03952077 -0.22047997 -0.23293272
0.027808063 -0.028220294 0.042331908 0.02475403 -0.43960953 0.0041290633 0.1303563 0.13854954
0.02206828 0.062318202 -0.39996722 0.033835344 0.10109362 -0.42247584 0.19485343 0.012171809
-0.16817251 0.05068204 -0.23611982 -0.24288839 -0.08602916 -0.4799859 -0.006057022 0.06635445
-0.25442258 -0.10228892 -0.16175745 0.015286666 -0.013313982 -0.14149417 0.19497174 0.087830976
-0.10439561 0.14804398 -0.13180599 0.1968699 -0.10545743 -0.025840322 -0.054908685 0.03961927
-0.2946353 -0.18630561 -0.4528225 -0.1394952 -0.16626093 -0.50407404 0.040312815 0.060855307
0.19172338 -0.15874664 -0.31820816 -0.0698599 -0.08929984 -0.13804412 -0.23516238 -0.16764855

fc2.bias f4 [300]
00000000: 054a 62be b008 a6bd c33f 69be 16b2 81be
00000010: 50bb 393b d14c 27be d546 02bd 4e1f c7bd
00000020: aca0 70be 7a9d e3bd 28b2 78bd ed14 dbbd
00000030: b824 8bbe 92ae 89bd 93ea 0dbe 1885 b2bd
00000040: 8a1b 1b3d 1102 48bd 373b 0dbe a396 80bd
00000050: 953e 47be 7d7e 1cbe e7e1 40bd 8998 13be
00000060: 2498 cabb 46b7 86bc 0f15 9fbd 9b23 7ebe
00000070: 1c0b d6bd e6f6 29be eb8c c1be 63f7 cbbd
00000080: adce cabd 17db 5abc 5c48 ddbd 5f98 92bc
00000090: aea3 20be 4b21 a1bd 6e12 9c3d 38b3 f43c
000000a0: 407c 96bd ae14 02bb 2933 dabd 339b 3abd
000000b0: 6af9 b5be 0f81 62bd 0562 1cbe 6f27 38be
000000c0: b3fd 883c ac5d e7bd fd28 eebd 86c8 cd3c
000000d0: 27f0 5c3c cc29 82bb d6d3 2dbe 1fd7 25bc
000000e0: 06e7 0a3e af3d 46bd 5770 113d 2337 21be
000000f0: 2163 1dbe 8419 4cbd 2055 563c 399c 15be
00000100: ad96 a7bd da33 85bd 9228 0ebe b39d 313d
00000110: ad97 2cbe 4800 d4be c74a 94bd 965f f1bd
00000120: 588e 21be 4034 efbc 4e6e 903d 6e61 e73c
00000130: 75da c2be f8c3 42be 6931 233e 67f4 95bd
00000140: 0f72 81be 33cc cfbd e671 0fbd 136c cb3d
00000150: f2a9 46be e283 61be 3e1e debd 3cda 0cbe
00000160: 35c3 4bbd 0493 b9ba 92d0 14be d9b9 3fbe
00000170: d7d0 12bd 996b 3abe 8e92 37be f1a6 f4bc
00000180: f154 8d3b 052c 29be 945d 733d ccc4 8ebe
00000190: aa33 173c 1a37 aebe f547 843d e474 87be
000001a0: dcf7 ebbd 33fa 0ebd e6e1 31bd c092 f1bd
000001b0: ff79 5ebe d26f b5bd 8a6b 7bbd 4a0a 2b3d
000001c0: 3799 1cbc 6cf2 84be 2f99 07be bb18 bfbd
000001d0: 0cf7 8cbc efbb 9e3c 76cc cfbd 421b 1abe
000001e0: 5404 b43b ea53 4abd 5743 853d 9a9f 97bd
000001f0: 70c2 8cbe c355 90be 838a 8cbd 8135 7abd
00000200: 494b febd 8aac 32be 9231 08be 162c 483c
00000210: 0c18 a43c edee 9ebe 03d7 0c3d 9671 9bbd
00000220: 8e0a 20bd 9747 7fbe c823 143c 1a34 eabd
00000230: b8a2 b4bd c487 39be 7cfb d7bd c3ec 07be
00000240: f508 1039 ae5e 473a dd67 e83c 4cb8 82bc
00000250: 5911 14bd 2cd3 70bd 83f5 31be d379 6ebd
00000260: 9e0f 9abd 35b7 c1bc 5569 06be 54f9 7cbd
00000270: 4596 4cbd cbf5 0abe 6927 21be 2d5d 9bbd
00000280: 4872 d9bb 4d75 1bbd da34 83bd 0027 77bd
00000290: 879c 00be 7107 03be f8f2 7e3c 2812 99bc
000002a0: ea13 04be 7d89 04be 605d f33d b1db e7bd
000002b0: 259b 0dbd abcb 9cbe 502c cb3a 6015 14be
000002c0: 5990 88bc 0d57 b8bd c65b 80be cd78 53be
000002d0: f908 51bc 31f8 4fbd ff0a afbd eee3 79be
000002e0: 8f1c c43c dd5b c3bd 427c 14be cdc9 f4bd
000002f0: db21 cbbd 5eb4 cbbd 7e76 83be 356e a4bd
00000300: 5e94 f03d 8968 19be 2abb 913b a7b2 f9bd
00000310: 5567 72be 2877 17be b336 99bc fe99 0f3e
00000320: ad5f 98bc 511f a5bd a800 89be 02ad 50be
00000330: e1c5 f0bd 46dc d1bd c0d7 8dbd ee86 cfbd
00000340: 880b 1cbd 79d7 243d 0e6d cdbc bc54 32be
00000350: ae07 e5bc 8c4a 33be ae59 7b3c c59f eabd
00000360: d89b 09bc 9f40 41bd d1b5 06be c93f 37be
00000370: 62b1 40bd 3e27 5bbe e43a 94bd 3bc4 ad3b
00000380: 2a77 633a b390 67be cb99 48bd fe69 febd
00000390: 184d ddbd 08b8 00be 8e26 68bd 1221 2bbe
000003a0: 6887 27bd 7a06 aabe 31f7 86bd 97c4 6dbd
000003b0: d025 98bc 9547 403c 379b d8bd d398 773c
000003c0: 23ff 973d 15db 7dbe 714d 573d b181 78be
000003d0: e8b4 27be 5ac1 84be e7ac c3bd e38b 11be
000003e0: f653 65be cac6 383d f1e1 d8bd 3c02 71be
000003f0: 9d9d b8bc 5526 913d d952 5bbe 83af 44be
-0.22098549 -0.08107126 -0.2277823 -0.2533118 0.0028340407 -0.16337897 -0.031805832 -0.09722768
-0.23498791 -0.11114021 -0.060716778 -0.10697351 -0.27176452 -0.0672275 -0.13859014 -0.08716792
0.03786806 -0.048830096 -0.1379212 -0.06278732 -0.19457467 -0.15282626 -0.047090437 -0.14413656
-0.0061826874 -0.016444813 -0.077676885 -0.2481827 -0.10451338 -0.1659809 -0.37802824 -0.09959295
-0.099027015 -0.013357899 -0.10804817 -0.017894922 -0.15687439 -0.07867678 0.07620703 0.029870614
-0.073479176 -0.0019848752 -0.10654289 -0.045558166 -0.3554185 -0.05529886 -0.15271766 -0.17983793
0.016722536 -0.11297163 -0.11628912 0.025120031 0.013484991 -0.0039722677 -0.1697534 -0.01012209
0.13564691 -0.04839867 0.035507526 -0.15743689 -0.15369846 -0.04982902 0.013081819 -0.14610375
-0.08183036 -0.065040305 -0.13882664 0.043363284 -0.16854735 -0.41406465 -0.07240825 -0.1178581
-0.15776956 -0.02919972 0.07052289 0.0282447 -0.38057294 -0.19020069 0.15936817 -0.07322007
-0.25282332 -0.1014637 -0.03502073 0.09932723 -0.19400766 -0.22022966 -0.10845612 -0.13755125
-0.04974671 -0.0014158194 -0.14532688 -0.18723239 -0.035843696 -0.18205108 -0.17927 -0.02986476
0.0043131043 -0.16520698 0.059415415 -0.2788452 0.009228626 -0.34026414 0.06459037 -0.26456368
-0.11521885 -0.034906577 -0.043428324 -0.117955685 -0.21726225 -0.08859219 -0.061381854 0.04175786
-0.009558014 -0.25966203 -0.13242029 -0.09330889 -0.017207645 0.019376723 -0.1014642 -0.1504946
0.00549368 -0.049396433 0.06506985 -0.074034885 -0.27492094 -0.2819043 -0.068623565 -0.06108618
-0.12416703 -0.17448631 -0.1330016 0.012217542 0.020030998 -0.3104166 0.03438474 -0.07590024
-0.039072566 -0.24929653 0.009041734 -0.11435719 -0.08820099 -0.18118197 -0.10546014 -0.13273911
0.00013736247 0.0007605356 0.028369838 -0.01595702 -0.036149357 -0.05879514 -0.17378812 -0.05822165
-0.0752251 -0.02364693 -0.13126118 -0.061761215 -0.049947996 -0.13570325 -0.1573769 -0.07586131
-0.006635938 -0.037953664 -0.06406565 -0.060339928 -0.1255971 -0.12795807 0.015560858 -0.018685415
-0.12898222 -0.12943073 0.11883044 -0.113212 -0.034571785 -0.30624136 0.0015500877 -0.14461279
-0.016670393 -0.090009786 -0.25070018 -0.2065155 -0.012758487 -0.050773803 -0.08547019 -0.24403355
0.023939399 -0.09539006 -0.14500526 -0.11952553 -0.09918567 -0.09946512 -0.2567634 -0.08028833
0.11747049 -0.14981283 0.0044473605 -0.12192278 -0.2367223 -0.14791548 -0.01870284 0.14023587
-0.01860031 -0.08062614 -0.26758313 -0.20378497 -0.117564924 -0.10247092 -0.06925917 -0.10133158
-0.038096935 0.040244553 -0.025076415 -0.17415136 -0.027957764 -0.17508906 0.0153412055 -0.11456255
-0.008398972 -0.047180768 -0.13155295 -0.17895426 -0.047044165 -0.21401688 -0.07237795 0.0053029335
0.00086771196 -0.22613792 -0.048974793 -0.1242256 -0.1080572 -0.12570202 -0.056677394 -0.16711834
-0.040900618 -0.33208066 -0.06590117 -0.05804881 -0.018572718 0.0117358165 -0.1057648 0.01511212
0.0742171 -0.24790604 0.05256409 -0.24268223 -0.16377604 -0.25928766 -0.09554463 -0.14213519
-0.2239531 0.045111455 -0.1058997 -0.23536009 -0.022536093 0.070873894 -0.21418323 -0.19207577

fc3.weight f4 [4, 300]
00000000: 60d5 4d3e 234e 45be d3c8 90be 44d3 953e
00000010: 009e 913d af20 0e3f 1b5f 253e 38e2 a83e
00000020: ec67 963e 985c a5bd da5d 07be 77d3 8cbe
00000030: 2137 e4bd d4d9 a3be 732b 6d3d 69eb cb3e
00000040: 7938 adbe 9519 08be 3dfe 4f3e 7912 5f3e
00000050: 8228 963c 565b 83bd b77d 083f 3bb9 bb3d
00000060: 622a 603e d400 89be ad30 b7bc 3350 54be
00000070: 3ce9 803e 4802 0c3c 43a9 5ebe 8e6d 873e
00000080: 3c0e 0dbd 2561 8abe 348d a3bd 3ba7 233f
00000090: 1f1a 0abd a4e6 febd c6db a63d 4543 b2be
000000a0: 0fa9 813e 5aff acbe 7727 2d3d a94f afbc
000000b0: 8ef1 60ba 9650 1a3e af9c 33be c14e 98be
000000c0: 3ae9 04bf de7c 0a3f be0b 503d 26f6 76be
000000d0: e44c 85be beac 86be 6268 823d f2d2 4ebe
000000e0: efe2 3439 98b1 95be 61ed 443d 4475 0abf
000000f0: e41e b2be ca76 96bd f1ec 70be 0ff7 dabd
00000100: faaa 52be 5013 fdbb 6ac9 1b3f 5a1a 083c
00000110: 8e6f 62be b413 d83c a32c 973d 661d 313e
00000120: ff8d 743d 7f25 6bbd 9df3 51be 006b 0f3c
00000130: ec1b 723e be1c 6c3e a1b8 2f3d d85d 3fbe
00000140: 541c 8f3e f9bd a5be d967 ac3e f812 dbbe
00000150: 6981 54be c31e 813d e9cc a9bd 6393 1b3d
00000160: c05b 30be 8b90 9fbb c324 4bbe 64cc 7e3e
00000170: d0cf 323f a3f1 fd3e 7ccf d63e bb93 193d
00000180: ae82 a1be 9ac1 263e 6298 92be 8841 8abe
00000190: 06e4 1b3e 2190 2dbd 5b45 24be 6da0 593e
000001a0: c758 af3d 9123 cbbe c309 6abe 17fc af3e
000001b0: 8838 17be 6b9c 59be ec1b 98bc eedc 82ba
000001c0: 5da1 c7be f5d0 08be 6bf3 3ebe 1190 f73e
000001d0: 4cf7 be3d 82af b1bd 9731 90be 7df4 63bd
000001e0: 6bfa bd3d 4e8e 2a3f d1d6 bb3e d79a 453e
000001f0: 83b9 563c b6f5 973e ac21 283e 3069 13be
00000200: 6f76 25be 2e70 e83e 52a0 88be 7202 d4be
00000210: 52f8 9cbe f632 9bbe a939 753e 822d b8bd
00000220: 83e2 1e3d a3e5 e8be 4d78 3ebe 8952 7ebe
00000230: a9a1 6d3e 3168 fdbe 334b 25be 79f7 febc
00000240: 5a62 89be f6f6 2a3e b40b 4f3e 5b8a 143e
00000250: 0c96 15bf 59de 953d 238e 013d fb61 433b
00000260: 3bdd e53d f493 d8be 354c 833e 036e 12be
00000270: 811c 9ebd fb81 9bbe ae98 40be fd88 22be
00000280: 96ca 06bf f56f ea3e 38c5 91be 51e7 2a3f
00000290: db83 eebe 2dbe d5be 5a3a e6be 3f4b 873e
000002a0: d685 473e 7d48 a7be 018a b0bd e1c5 2dbd
000002b0: d3ee e83e 3655 ab3e e6c5 bcbe 6e56 543d
000002c0: 0d67 633b 487c ad3e 214f 5c3f 7751 6d3e
000002d0: fb07 7c3e e334 133b bcbc b03e e1e4 91be
000002e0: 5a27 18be 3339 0abf 6dbd f33c fca8 09be
000002f0: 1659 90be 81e2 993e fa72 fe3d f4d4 eabe
00000300: bbcd ccbd eaae 303e fe85 8fbe af1c e53e
00000310: 59a5 03be 8397 86be 5c94 a13e f55a f8bd
00000320: f92a d63d fb0a 54bd ceed 13bd c701 d2be
00000330: b378 af3e fa4f 8f3e 0373 9f3c 8229 1fbe
00000340: 2820 4f3e b1ef 3e3e 5794 063f 4652 0fbe
00000350: 9244 3c3d a194 18be ce5e e2bd b372 8c3e
00000360: c946 8abe e518 98bc 9381 983d 2a50 13bd
00000370: 5122 75be e887 083e bc6f 2d3e 1a41 023f
00000380: dd20 563e 8260 cbbd 5394 063e dd8b 83be
00000390: b99b e53e 035c f3be f53a c43d c2ae abbd
000003a0: 0950 093e 35e8 113f 3293 8e3e 8acb 893e
000003b0: 6bc9 2fbd dd38 573e 0334 673c 64b2 813e
000003c0: 99d2 3fbd 80b0 7fbe e320 463d 6b3c f0bd
000003d0: 9187 803e f016 e0be 4d9b 8ebe 99f9 bcbc
000003e0: 822a 9cbe 034c 9bbe 58b8 c5bd 6a6c aabe
000003f0: b433 c5bd 1cd5 21be 40d3 9cbb 172d 8dbe
0.20100927 -0.19268088 -0.28278217 0.29262745 0.07110214 0.5551862 0.16149561 0.3298509
0.2937616 -0.080743015 -0.13219395 -0.27505085 -0.111433275 -0.32002127 0.057902765 0.3982804
-0.33832148 -0.13291009 0.20311828 0.2178439 0.018329863 -0.06413905 0.53316826 0.09166189
0.21891168 -0.26758444 -0.022362078 -0.20733719 0.25177944 0.008545466 -0.21744256 0.2645077
-0.034437403 -0.2702724 -0.07985917 0.6392705 -0.033716317 -0.12446335 0.08147387 -0.34816948
0.25324294 -0.33788568 0.042273965 -0.02140029 -0.00085809163 0.15069804 -0.17540239 -0.29747584
-0.51918375 0.5409678 0.05079245 -0.24117336 -0.26035225 -0.26303667 0.06367566 -0.20197657
0.00017250677 -0.29237056 0.048077945 -0.54085183 -0.34789193 -0.07346876 -0.23527886 -0.10691654
-0.20573035 -0.0077232495 0.6085421 0.008307064 -0.22112867 0.026376583 0.07381561 0.17296371
0.05970573 -0.057408806 -0.20503087 0.008753538 0.23643464 0.2305784 0.042900685 -0.18688142
0.279513 -0.323715 0.3367298 -0.4278791 -0.20752491 0.063046955 -0.08291037 0.037982356
-0.172225 -0.004869526 -0.19838242 0.24882656 0.69848347 0.49598417 0.41955173 0.037494402
-0.31545013 0.1628479 -0.28631884 -0.2700312 0.15223703 -0.04237378 -0.16042082 0.21252604
0.08561855 -0.39675573 -0.22855286 0.34372017 -0.14767659 -0.21251075 -0.018568002 -0.0009984055
-0.38990298 -0.13360961 -0.18647544 0.483521 0.09324512 -0.086760536 -0.28162834 -0.055653084
0.09276279 0.6662339 0.3668733 0.19297348 0.013105753 0.2967965 0.16419095 -0.14395595
-0.1615846 0.45398086 -0.26684815 -0.41408116 -0.30658203 -0.30312318 0.23947777 -0.08993055
0.038790237 -0.454877 -0.18600579 -0.24836172 0.232062 -0.49493554 -0.16141967 -0.031123864
-0.2683285 0.1669577 0.20219308 0.14505903 -0.5843208 0.073178 0.031629693 0.002981304
0.11223837 -0.4230038 0.2564408 -0.14299779 -0.077202804 -0.30372605 -0.18808243 -0.1587257
-0.5265287 0.4578854 -0.28470778 0.6675921 -0.46584973 -0.41746655 -0.44966394 0.26424596
0.19484648 -0.32672492 -0.08620072 -0.04242504 0.45494708 0.33463448 -0.36869735 0.05184024
0.0034698874 0.33883882 0.8605824 0.23175608 0.2461242 0.0022461943 0.34518993 -0.28494933
-0.14858761 -0.5399353 0.029753411 -0.13443369 -0.28192967 0.3005562 0.12424274 -0.45865595
-0.100001775 0.17254224 -0.28031915 0.44748446 -0.12856044 -0.2628747 0.31558502 -0.12126724
0.10457415 -0.051768284 -0.03611546 -0.4101698 0.34271774 0.27990705 0.019464022 -0.15543178
0.2022711 0.18646123 0.525701 -0.13996229 0.04596383 -0.14900447 -0.11053239 0.2743126
-0.2700713 -0.018566558 0.07446589 -0.035965122 -0.23938872 0.13333094 0.16937155 0.5088059
0.20910974 -0.09930517 0.13142519 -0.25692645 0.4484537 -0.47531137 0.09581558 -0.08382942
0.13409437 0.56994945 0.27846676 0.269131 -0.042916697 0.21017785 0.014111522 0.25331414
-0.0468317 -0.24969673 0.048371207 -0.11730274 0.2510343 -0.437675 -0.2785286 -0.023068236
-0.3050118 -0.3033143 -0.096543014 -0.33285838 -0.09629002 -0.15803951 -0.004785925 -0.27573463

fc3.bias f4 [4]
00000000: 5593 cabd 17ac 22bc c089 263c 0182 1cbd
-0.098913826 -0.009928725 0.010164678 -0.03820992
