actor-target_parameters.pt (torch_old, 541417 bytes, 6 tensors)

fc1.weight f4 [400, 33]
0	0x3d90a728	0.070631325
1	0x3b6d318b	0.003619286
2	0x3dacd1eb	0.08438476
3	0x3ec981b1	0.3935676
4	0xbe31caa4	-0.17362458
5	0xbe144ffc	-0.14483637
6	0xbe3cfe53	-0.18456392
7	0x3cb5938f	0.022165088
8	0x3d9d8409	0.07691199
9	0xbdefc24d	-0.11706982
10	0xbc01b6cc	-0.007917117
11	0xbd76ee9c	-0.06028615
12	0x3d13fb66	0.036128424
13	0x3c4995a3	0.012303743
14	0x3cd738e0	0.026272237
15	0xbe162952	-0.146642
16	0x3dbf7989	0.09349353
17	0xbe1c08c7	-0.15237723
18	0x3ea4f347	0.32216856
19	0x3c23ad9a	0.00999012
20	0xbd00fde9	-0.031492148
21	0xbc3eb604	-0.011640076
22	0x3d04b6a1	0.03240073
23	0x3d7ad91b	0.061242204
24	0xbdbc6c6a	-0.09200366
25	0x3d27ce16	0.040968023
26	0x3e7d6a19	0.24747504
27	0x3ded8613	0.11597838
28	0x3e64635c	0.22303528
29	0xbc3290e8	-0.010898806
30	0xbe3856eb	-0.18001907
31	0x3be71a1a	0.007052672
32	0xbf6d0af1	-0.9259482
33	0x3e8ea677	0.27861378
34	0xbe304dce	-0.1721718
35	0xbe385fc4	-0.18005282
36	0xbdddeae2	-0.10835816
37	0xbd0dbf83	-0.034606468
38	0xbe07425b	-0.13208906
39	0xbe692c1f	-0.22770737
40	0x3d94b01f	0.07260155
41	0x3e936325	0.2878658
42	0x3e0c1b80	0.13682365
43	0x3e1512a0	0.14557886
44	0xbc88c7c8	-0.016696826
45	0xbc95357d	-0.018213982
46	0xbe236ceb	-0.15959518
47	0x3eb8c06c	0.36084306
48	0xbe6fa378	-0.23402202
49	0x3e9aa4bc	0.30203807
50	0x3eaa6fb0	0.33288336
51	0xbdeaf1b6	-0.11471884
52	0x3d694dbe	0.056958906
53	0xbc81cb09	-0.015843885
54	0x3dec18d5	0.11528174
55	0x3d8d9c1a	0.0691454
56	0xbd688e2b	-0.056776207
57	0x3e061d0a	0.13097015
58	0xbc555d45	-0.0130227255
59	0xbd97ad0f	-0.07406055
60	0xbe3f46a3	-0.1867929
61	0xbcbf8e5c	-0.023383312
62	0x3d1be649	0.038061414
63	0x3e5992d7	0.21247421
64	0x3cb54392	0.022126947
65	0x3da32bcd	0.07967339
66	0xbdc5cedb	-0.09658595
67	0x3dd1dce5	0.102472104
68	0xbea82ad7	-0.32845184
69	0xbe171871	-0.14755417
70	0x3d0d3268	0.0344719
71	0xbdd3f93a	-0.103502706
72	0xbd030125	-0.031983513
73	0xbe389ae4	-0.18027836
74	0x3e939c89	0.28830364
75	0x3d24996a	0.04018537
76	0xbda59fdb	-0.08087131
77	0xbd58523c	-0.0528128
78	0x3dff6d54	0.124720246
79	0xbe340602	-0.17580417
80	0xbdc56cc3	-0.09639885
81	0x3d456654	0.04819329
82	0x3e956dab	0.29185233
83	0xbe692944	-0.22769648
84	0x3eec2008	0.46118188
85	0x3c2338f6	0.009962311
86	0xbd7c9cf1	-0.06167311
87	0x3e336eb5	0.175227
88	0x3c3da45b	0.01157483
89	0x3de15d0d	0.11004076
90	0xbdcc5a0b	-0.09978112
91	0x3e082bee	0.13298008
92	0x3e157687	0.14595996
93	0x3e87d714	0.2653128
94	0x3d56b859	0.0524219
95	0xbcdcd78a	-0.026958246
96	0xbe324ac4	-0.17411333
97	0x3d042467	0.03226128
98	0xbeb872ee	-0.36025184
99	0xbe1b47f5	-0.15164168
100	0x3e046cc3	0.12932114
101	0x3dc9c447	0.0985189
102	0x3e043152	0.12909439
103	0xbf32dabd	-0.6986502
104	0xbe47afbf	-0.19500636
105	0x3e6240fe	0.22095105
106	0xbe3e1c88	-0.18565571
107	0x3dc07c71	0.09398735
108	0xbeefe5f7	-0.46855137
109	0xbdfccc81	-0.123436935
110	0xbd3617c9	-0.044456277
111	0x3e3d4862	0.18484643
112	0x3c6ed1a5	0.01457635
113	0x3c9d6c1f	0.019216595
114	0xbc900756	-0.017581623
115	0x3da88e30	0.08230245
116	0xbe3298b5	-0.17441066
117	0x3db4ba7b	0.08824631
118	0x3cf51d51	0.029921206
119	0xbe1109c7	-0.14163886
120	0x3db0356d	0.0860394
121	0xbe4739fa	-0.1945571
122	0x38d72891	0.00010259555
123	0x3d87f515	0.066385426
124	0x3e49fad8	0.19724596
125	0x3dc994f9	0.098428674
126	0x3e923508	0.28556085
127	0xbd0690aa	-0.032852806
128	0x3d421169	0.047379885
129	0xbe968994	-0.2940184
130	0xbd1ea59b	-0.038732152
131	0x3f29ab11	0.6627665
132	0x3dc3f517	0.095682316
133	0xbd016cb0	-0.031597793
134	0x3e8bbd55	0.27292886
135	0x3d8a3ecd	0.067502595
136	0x3e522d03	0.20524983
137	0x3e8f534a	0.27993232
138	0xbe2143e3	-0.15748553
139	0xbd685761	-0.056723956
140	0xbe3da4ae	-0.18519852
141	0xbe348e34	-0.17632371
142	0xbd68765f	-0.056753512
143	0xbd5a39fc	-0.053277954
144	0xbc947031	-0.018119903
145	0x3d9feef0	0.078092456
146	0x3d5c5f2b	0.053801697
147	0xbdd9275f	-0.106032126
148	0xbea3c7b2	-0.31988293
149	0x3d67488a	0.056465663
150	0x3d10cb26	0.035349987
151	0x3e76f7a1	0.241179
152	0x3dd47ea4	0.10375717
153	0xbe15da7c	-0.14634126
154	0x3d17c1f5	0.037050206
155	0x3d0faa36	0.035074435
156	0x3cf8ace2	0.030355874
157	0xbddac322	-0.1068175
158	0xbd847227	-0.06467085
159	0x3daeebe0	0.08541083
160	0xbd877b65	-0.066153325
161	0xbcd6e2e0	-0.02623123
162	0xbdd5b3e0	-0.10434699
163	0x3ca7ce2e	0.020484056
164	0x3fa44223	1.2832683
165	0x3da9f02d	0.08297763
166	0x3e475d3f	0.19469164
167	0x3d93e107	0.07220655
168	0xbecebd99	-0.40379027
169	0x3eeca14d	0.46216813
170	0x3e286643	0.1644526
171	0xbe38cffb	-0.18048088
172	0xbdeaa44a	-0.11457117
173	0xbe1f2219	-0.15540351
174	0xbdb4a805	-0.0882111
175	0xbbf74a71	-0.007546716
176	0xbda3ff4d	-0.08007679
177	0xbde5b759	-0.112166114
178	0xbe2476f2	-0.16060999
179	0xbed584c5	-0.41702858
180	0x3e9dbeba	0.30809575
181	0x3c760af7	0.015017263
182	0xbd55675d	-0.052100528
183	0x3e884a97	0.26619408
184	0x3eb0a1a3	0.3449832
185	0xbdbcf1e4	-0.092258245
186	0xbcaca8ab	-0.02107652
187	0x3d721937	0.059106078
188	0xbd8d4695	-0.06898228
189	0x3dbce2a1	0.092229135
190	0xbd09cf52	-0.03364498
191	0xbd42245f	-0.047397967
192	0x3e1cfc80	0.15330696
193	0xbe080680	-0.1328373
194	0xbbb8e18a	-0.0056421207
195	0xbe413360	-0.18867254
196	0xbc336748	-0.010949917
197	0x3deb8d41	0.115015514
198	0xbd963aca	-0.07335432
199	0x3cb286cf	0.021792797
200	0x3e04e79b	0.12978975
201	0x3eb73e4f	0.35789725
202	0xbe55292c	-0.20816487
203	0xbe6c9788	-0.2310468
204	0xbe366fa5	-0.17816027
205	0x3db1cb16	0.08681314
206	0xbd39718d	-0.045274306
207	0x3e15c56b	0.1462609
208	0x3dc0f7d8	0.094222724
209	0x3e17c7df	0.14822339
210	0x3d847767	0.06468087
211	0xbccee39f	-0.025255023
212	0x3d06d097	0.03291377
213	0xbe8eee29	-0.27916077
214	0x3deece94	0.116604954
215	0x3cbdc9f0	0.02316758
216	0x3f1ac714	0.6046002
217	0xbd8f4c5a	-0.06996985
218	0xbcc432bb	-0.023949971
219	0xbd0ab767	-0.033866312
220	0x3db8a22a	0.09015305
221	0x3d13ca69	0.036081705
222	0x3d4cee63	0.05003203
223	0x3d8a9147	0.06765991
224	0x3e31396a	0.17307058
225	0x3e2cc882	0.16873363
226	0xbd8aa5cc	-0.067699045
227	0xbd487a00	-0.048944473
228	0xbe10c428	-0.14137328
229	0x3d1bcbd4	0.038036183
230	0x3e79ef8d	0.24407788
231	0xbd2e8a27	-0.04261222
232	0x3dd507b1	0.10401858
233	0xbea7b9f1	-0.3275905
234	0xbe88b5bd	-0.26701155
235	0x3e0bee08	0.1366502
236	0x3ddbee6f	0.10738837
237	0xbea0470c	-0.31304204
238	0xbd78c105	-0.060730953
239	0xbe491713	-0.19637708
240	0x3de4e6b3	0.11176815
241	0x3e0e66e7	0.13906442
242	0x3b3cb8f5	0.0028796766
243	0xbe2bb94c	-0.16769904
244	0xbe0fc6b2	-0.1404064
245	0xbe211503	-0.15730672
246	0x3e06431d	0.13111539
247	0x3e91d48b	0.2848247
248	0x3e9cf5e1	0.3065634
249	0x3d6d3dd3	0.05792029
250	0xbe1be64c	-0.1522457
251	0x3d143901	0.036187176
252	0xbeaf23b1	-0.34206918
253	0xbe381f1a	-0.17980614
254	0x3c56aa86	0.013102179
255	0xbcdac69d	-0.026706034

fc1.bias f4 [400]
0	0xbe575e86	-0.21032152
1	0x3e8a718e	0.2703976
2	0xbe736d1a	-0.23772088
3	0xbea5a50c	-0.32352483
4	0xbd2e129d	-0.04249822
5	0xbe38b4b4	-0.18037683
6	0xbe207bff	-0.15672301
7	0xbec05a0b	-0.37568697
8	0xbed934aa	-0.42422992
9	0xbdf78614	-0.1208612
10	0xbe548025	-0.20752008
11	0xbdba15c3	-0.09086182
12	0xbd56095e	-0.052255027
13	0xbe76c346	-0.24097928
14	0xbe5bc389	-0.2146131
15	0xbe93a068	-0.28833318
16	0xbdeb7e8a	-0.11498745
17	0xbd5b3702	-0.053519256
18	0xbe88f61b	-0.26750264
19	0x3d7afdda	0.061277248
20	0xbe2a5062	-0.16632226
21	0xbeb13609	-0.34611538
22	0xbd897a0e	-0.06712733
23	0xbe87be4c	-0.26512372
24	0xbe8c2309	-0.2737048
25	0xbe9c0202	-0.30470282
26	0xbe5b660a	-0.21425644
27	0xbe883d18	-0.2660911
28	0xbed83076	-0.42224473
29	0xbe61c0c4	-0.2204619
30	0xbe0f9092	-0.14019993
31	0xbe93ad32	-0.28843075
32	0xbe1e223b	-0.15442745
33	0x3c187ede	0.009307591
34	0xbe21e0ec	-0.15808457
35	0xbe285d66	-0.16441879
36	0xbc0d99e4	-0.008642647
37	0xbd7ce452	-0.06174118
38	0xbddf54a7	-0.10904818
39	0xbec227c1	-0.37920955
40	0xbe92558b	-0.2858089
41	0xbd855bdf	-0.06511664
42	0xbe13af9f	-0.14422463
43	0xbe35c238	-0.1774987
44	0xbeea20f6	-0.45728272
45	0xbb9f44fe	-0.0048605194
46	0xbec63383	-0.38711175
47	0xbe575908	-0.21030056
48	0xbeb8c67d	-0.36088935
49	0xbe19a271	-0.15003373
50	0xbe94375a	-0.2894848
51	0xbeb889a1	-0.36042503
52	0xbe301357	-0.17194878
53	0xbd2206fc	-0.039557442
54	0xbeb206da	-0.34770852
55	0xbe440823	-0.19143729
56	0xbe81433a	-0.25246602
57	0xba389e02	-0.0007042588
58	0xbe7f3d76	-0.24925789
59	0xbeb572e0	-0.35439205
60	0xbdd765ef	-0.10517489
61	0x3d4b6e61	0.049665812
62	0xbe9f750d	-0.3114399
63	0xbe0b664a	-0.13613239
64	0xbea8079f	-0.32818314
65	0xbe3a2069	-0.18176426
66	0xbe986789	-0.2976649
67	0xbe854d8f	-0.26035735
68	0xbea7cca5	-0.3277332
69	0xbe0779bc	-0.13230032
70	0xbddc978b	-0.10771092
71	0xbe5a5bbf	-0.21324061
72	0xbe791e12	-0.24327877
73	0xbec440c0	-0.3833065
74	0xbdf00ddc	-0.117213935
75	0xbda966c2	-0.082715526
76	0xbe365732	-0.178067
77	0xbe9ae15f	-0.3025007
78	0xbe413bc5	-0.18870457
79	0xbeb41e03	-0.35179147
80	0xbe46dfd9	-0.19421329
81	0xbd81ef7b	-0.063445054
82	0xbe5e237e	-0.21693227
83	0xbe6f729f	-0.23383568
84	0xbe3be101	-0.18347551
85	0xbe76f915	-0.24118455
86	0xbe157e54	-0.14598972
87	0xbe179916	-0.14804491
88	0xbe893d44	-0.26804554
89	0xbd4abacf	-0.04949456
90	0xbe148bbd	-0.14506431
91	0xbe04beb9	-0.1296338
92	0xbe5c439b	-0.21510164
93	0xbe3c895a	-0.1841177
94	0xbea1eb66	-0.31624907
95	0xbe988664	-0.29790032
96	0xbe1f8b9a	-0.15580598
97	0xbebdb1a3	-0.3704959
98	0xbe41f67b	-0.18941681
99	0xbdbca1b2	-0.092105284
100	0xbe23bd61	-0.15990211
101	0xbea7075f	-0.3262281
102	0xbdedb796	-0.11607282
103	0xbe1fdaec	-0.15610856
104	0xbe890443	-0.26761064
105	0xbe5107d4	-0.20413142
106	0xbeabae83	-0.3353158
107	0xbe79ef44	-0.24407679
108	0xbe4599bf	-0.1929693
109	0xbe0bebf2	-0.13664225
110	0xbe4b22c8	-0.19837487
111	0xbea60ba3	-0.32430753
112	0xbde4bc69	-0.11168749
113	0x3dfd3795	0.12364117
114	0xbda35474	-0.079750925
115	0xbc5bc198	-0.013412856
116	0xbc3d893b	-0.011568363
117	0xbea0f457	-0.31436417
118	0xbd97f41c	-0.07419607
119	0xbe1b4c16	-0.15165743
120	0xbce772fc	-0.028253071
121	0xbe5cec16	-0.21574435
122	0xbeb3b010	-0.35095263
123	0xbe97283b	-0.2952288
124	0xbe2dc1b6	-0.16968426
125	0xbdfdf259	-0.1239974
126	0xbe396678	-0.18105495
127	0xbe38bf46	-0.18041715
128	0xbd50fcfb	-0.05102251
129	0xbe62e075	-0.22155936
130	0xbdc92b3c	-0.098226994
131	0xbede28a1	-0.43390372
132	0x3e008561	0.1255088
133	0xbdefed29	-0.117151566
134	0xbec90116	-0.3925864
135	0xbe46f06d	-0.19427653
136	0xbd47c8f8	-0.048775643
137	0xbe507e38	-0.20360649
138	0xbc55ce9b	-0.013049747
139	0x3c9da9b8	0.019245967
140	0xbe6f5cae	-0.23375198
141	0xbe6b02f6	-0.22950348
142	0xbe6ffc23	-0.23436026
143	0xbea0da98	-0.31416774
144	0xbe02ffd6	-0.12792906
145	0xbe47e2a5	-0.19520052
146	0xbdd8f1ca	-0.105929926
147	0x3c8c6b55	0.017141024
148	0xbeb91b70	-0.36153746
149	0xbe695942	-0.22787955
150	0xbe9d6039	-0.30737475
151	0xbe2d996d	-0.16953059
152	0x3da3ac5d	0.0799186
153	0xbe551b1e	-0.20811126
154	0x3d7d1234	0.061784938
155	0xbe62300a	-0.22088638
156	0xbeb9b670	-0.36272
157	0xbeefde17	-0.4684913
158	0xbeaf8a15	-0.34285036
159	0xbef02fc2	-0.46911436
160	0x3c9ce9f0	0.019154519
161	0xbe9399ba	-0.28828222
162	0xbe7d9163	-0.24762492
163	0xbea18ba3	-0.31551847
164	0xbea0a212	-0.3137365
165	0xbe82ed3c	-0.2557162
166	0xbe73dbc2	-0.238143
167	0xbe82c30b	-0.2553943
168	0x3ce7ae20	0.028281271
169	0xbeb111a0	-0.3458376
170	0xbd2e5d9e	-0.04256975
171	0xbe5a20d7	-0.2130159
172	0xbe010c2a	-0.12602296
173	0xbe0aef32	-0.13567808
174	0x3ca31385	0.019906769
175	0xbe29d9d7	-0.16587006
176	0xbeab3d2b	-0.33445105
177	0xbea9f226	-0.33192557
178	0xbe900364	-0.28127587
179	0xbe2c49c7	-0.16825019
180	0xbe5de974	-0.21671087
181	0xbe8e8629	-0.2783673
182	0xbe8e0f2f	-0.2774596
183	0xbe265eb5	-0.16247065
184	0xbe41589c	-0.18881458
185	0xbdbf65f5	-0.09345619
186	0xbea4b0e2	-0.321662
187	0xbe7d140d	-0.2471468
188	0xbce5506a	-0.027992446
189	0xbed0e11e	-0.4079675
190	0x3e570102	0.20996478
191	0xbe65fc0b	-0.22459428
192	0x3dd60dab	0.10451826
193	0xbe31607d	-0.17321964
194	0xbe91588d	-0.2838787
195	0xbebc22ef	-0.36745402
196	0xbe8ec382	-0.27883536
197	0xbea603b0	-0.32424688
198	0xbea45cef	-0.32102153
199	0xbdfeaa06	-0.12434773
200	0xbcc66866	-0.024219703
201	0xbe882f8b	-0.26598772
202	0xbe9fd330	-0.3121581
203	0xbe6403fb	-0.22267143
204	0xbe7837f5	-0.24240096
205	0xbd83f68d	-0.0644351
206	0xbee21f48	-0.4416449
207	0xbe97ad43	-0.29624376
208	0xbf002668	-0.50058603
209	0xbd69847e	-0.05701112
210	0x3e806597	0.25077507
211	0xbe7e459c	-0.24831241
212	0xbe78e998	-0.24307859
213	0xbe611812	-0.21981838
214	0xbdc9a338	-0.09845585
215	0xbe4a5642	-0.19759467
216	0xbe0d9bc1	-0.13828947
217	0xbd8d2b72	-0.06893052
218	0xbd7e45d4	-0.062078312
219	0xbe8ebaee	-0.2787699
220	0x3cbb00d2	0.02282754
221	0xbe062f6d	-0.13104029
222	0xbe92b1df	-0.2865133
223	0xbe400907	-0.18753444
224	0xbe6c85b2	-0.23097876
225	0xbe9f6f7d	-0.31139746
226	0xbd95fcc5	-0.073236026
227	0xbdbe9899	-0.093064494
228	0xbea16a44	-0.31526387
229	0xbeaa5ee1	-0.33275512
230	0xbe9a5a30	-0.30146933
231	0xbe1dc3bb	-0.15406696
232	0xbdb8ea7b	-0.090290986
233	0xbe47bb3d	-0.1950502
234	0xbd4da547	-0.05020645
235	0xbe78ecd1	-0.24309088
236	0x3dee772e	0.116438255
237	0xbe8037a9	-0.25042465
238	0xbe2c8fa2	-0.16851667
239	0xbdcfb4b7	-0.101418905
240	0xbef1cd45	-0.4722692
241	0xbc129612	-0.008946912
242	0xbe8ae3bc	-0.27126873
243	0xbebc5346	-0.36782283
244	0xbd45b506	-0.04826834
245	0xbe366037	-0.1781014
246	0xbe04227d	-0.12903781
247	0xbe725694	-0.2366584
248	0xbe97db74	-0.29659617
249	0x3e82d25c	0.25551116
250	0x3d83f723	0.06443622
251	0x3e1a16fb	0.15047829
252	0xbed59372	-0.41714054
253	0xbe41494b	-0.18875615
254	0xbd018ab0	-0.031626403
255	0xbeac22fd	-0.33620444

fc2.weight f4 [300, 400]
0	0xbc8007ae	-0.015628662
1	0xbe87afb1	-0.2650123
2	0x3d86ebdd	0.06587956
3	0x3cd4d5fe	0.025980946
4	0xbcf098a1	-0.029369654
5	0xbe05c7f0	-0.13064551
6	0x3d482d47	0.048871305
7	0x3c9c0ad1	0.019048126
8	0xbbde1374	-0.0067772213
9	0xbd8ee669	-0.06977541
10	0x3e92babd	0.28658095
11	0xbe59010c	-0.21191806
12	0x3e6c8265	0.23096617
13	0x3e1aa888	0.15103352
14	0x3e4482b2	0.19190481
15	0xbe918f6c	-0.28429735
16	0x3d938e54	0.07204881
17	0xbda444d8	-0.080209434
18	0x3ddbb6e5	0.10728244
19	0xbf355390	-0.7083063
20	0x3c84a4e8	0.016191915
21	0x3e137a3c	0.14402097
22	0xbd6820c2	-0.056671865
23	0x3e05537b	0.13020127
24	0x3e3f3041	0.18670751
25	0xbee64409	-0.44973782
26	0xbe16c5a6	-0.14723834
27	0x3de2e91f	0.110796206
28	0x3e2527c0	0.16128445
29	0xbc6b4416	-0.014359495
30	0xbefe98aa	-0.49725848
31	0xbe894c8a	-0.26816207
32	0xbc899b05	-0.016797552
33	0x3da5f41b	0.081032
34	0x3e5f0635	0.21779712
35	0xbdc08a45	-0.09401373
36	0x3e791fd5	0.24328549
37	0x3cb485c4	0.02203644
38	0x3d4fb26e	0.050707273
39	0xbd568f86	-0.05238297
40	0xbbd5065f	-0.0065010036
41	0xbe2a4e26	-0.16631374
42	0xbe8e902c	-0.2784437
43	0x3e3114ba	0.17293063
44	0xbe6990e7	-0.22809182
45	0x3e4145ce	0.18874285
46	0x3e08c368	0.13355792
47	0x3ce66969	0.028126435
48	0x3c6bc551	0.014390306
49	0x3dbb96d2	0.09159626
50	0x3e8cb84f	0.27484366
51	0xbeaace30	-0.33360434
52	0x3dd77956	0.1052119
53	0xbe9394b8	-0.288244
54	0x3e2917cf	0.16512989
55	0xbd170c72	-0.036877103
56	0xbe769680	-0.24080849
57	0xbe73f04e	-0.23822138
58	0xbdf42139	-0.11920399
59	0x3b328b34	0.0027243616
60	0x3b6d1861	0.003617786
61	0xbe4854b1	-0.19563557
62	0x3e3f1bcd	0.18662949
63	0xbe4ffea0	-0.20311975
64	0xbd3fc09c	-0.046814546
65	0x3e7f60bb	0.24939243
66	0xbeed125b	-0.46303067
67	0x3e268330	0.16260982
68	0x3cfb4495	0.03067235
69	0x3e50e7eb	0.2040097
70	0xbec72f08	-0.3890307
71	0xbe882ae7	-0.26595232
72	0x3df1bfbc	0.118041486
73	0x3c2bd3ac	0.010487478
74	0xbf1de91d	-0.6168383
75	0xbd319bd1	-0.04336149
76	0xbc6f7752	-0.0146158505
77	0xbde5da48	-0.112232745
78	0xbe879aab	-0.2648519
79	0x3dc0a827	0.094070725
80	0x3bc31905	0.0059539103
81	0xbe158202	-0.14600375
82	0xbe925734	-0.28582156
83	0xbe3f7696	-0.1869758
84	0xbe3642fb	-0.17798989
85	0xbdc02f90	-0.09384072
86	0xbcd94a44	-0.02652467
87	0xbe457c20	-0.19285631
88	0xbdd306d3	-0.10304036
89	0x3e57095d	0.20999666
90	0xbd29929d	-0.041399587
91	0xbe0034c8	-0.12520134
92	0xbd29efbd	-0.041488398
93	0x3e68e981	0.22745325
94	0xbc8e4d51	-0.017370852
95	0x3e9d7d6c	0.30759752
96	0xbd02f4d1	-0.031971756
97	0xbe563b7f	-0.20921133
98	0x3e81e2e7	0.25368425
99	0x3e06be80	0.13158607
100	0x3cccdad9	0.025006698
101	0x3d2a6d38	0.041608065
102	0x3e117532	0.14204863
103	0x3e207e65	0.15673216
104	0x3e667e14	0.22509032
105	0x3e1d114a	0.15338627
106	0xbe82aee1	-0.25524047
107	0x3e231894	0.15927345
108	0xbec5a5ac	-0.3860296
109	0xbe5ee0e2	-0.21765473
110	0x3cd2544f	0.025674967
111	0xbda847cb	-0.082168184
112	0x3da891e2	0.0823095
113	0xbe23f0de	-0.16009852
114	0xbeacde3b	-0.33763298
115	0xbe4a420b	-0.19751756
116	0x3c932011	0.017959626
117	0xbeaab844	-0.3334371
118	0x3d016222	0.031587727
119	0xbea8d840	-0.32977486
120	0xbedc0abd	-0.42976943
121	0xbe7d52bb	-0.2473859
122	0xbc36663a	-0.011132771
123	0x3df587f9	0.11988825
124	0xbe6ac0a4	-0.22925049
125	0x3e15b8fe	0.1462135
126	0x3d954efb	0.07290455
127	0xbdb7d26b	-0.08975681
128	0xbe2b9284	-0.1675511
129	0x3e48f763	0.1962562
130	0xbdd961f0	-0.10614383
131	0xbac0ab30	-0.0014699455
132	0xbe0e40b3	-0.13891868
133	0xbed328c5	-0.41242042
134	0xbddf0ce6	-0.10891132
135	0xbe1508a5	-0.14554079
136	0xbd8bf0ec	-0.068330616
137	0xbd97f5c6	-0.074199244
138	0x3bca71d4	0.00617812
139	0xbe9769c0	-0.29572868
140	0x3e10d167	0.1414238
141	0xbdf590d6	-0.11990516
142	0xbdb7987b	-0.0896463
143	0x3e444b38	0.19169319
144	0x3d730f89	0.059340987
145	0x3e81ff67	0.2539017
146	0x3dc84f12	0.097807065
147	0xbef2cfa9	-0.47424057
148	0x3c2231e4	0.00989959
149	0x3e541c3d	0.20713897
150	0xbe9fe412	-0.3122869
151	0xbe91fdd1	-0.2851396
152	0x3d26bc50	0.040706933
153	0x3cf813f1	0.030282946
154	0xbf06d8a2	-0.52674305
155	0xbd8e4670	-0.06947029
156	0xbdb7075a	-0.08936949
157	0x3e1e05b8	0.15431869
158	0xbd5fe35a	-0.05466018
159	0xbb2f35c0	-0.0026734918
160	0x3d46d58f	0.04854351
161	0x3e11d448	0.14241135
162	0xbe00bcaf	-0.12571977
163	0xbee62965	-0.44953457
164	0x3eade4c9	0.33963612
165	0x3e86d049	0.26330784
166	0x3d3f3458	0.04668078
167	0x3c3b0ba0	0.011416346
168	0xbe6f049e	-0.23341605
169	0xbdeb7acc	-0.11498031
170	0xb99fe5c6	-0.00030498038
171	0xbe4be7b9	-0.19912614
172	0xbba14424	-0.004921453
173	0xbe919e85	-0.28441253
174	0xbef0f4a1	-0.47061637
175	0x3d89bd0a	0.067255095
176	0xbe00b85f	-0.12570332
177	0xbe3367ec	-0.17520112
178	0xbdd48cf6	-0.10378449
179	0xbe82abd6	-0.25521725
180	0xbb833061	-0.00400357
181	0x3db1264e	0.08649884
182	0xbd85c811	-0.065323
183	0x3e674b54	0.22587329
184	0x3baaf9b1	0.005217754
185	0xbeecaf5e	-0.46227545
186	0x3e0fc6be	0.14040658
187	0x3e9137aa	0.2836278
188	0x3d530354	0.051516846
189	0x3e13cf84	0.1443463
190	0xbe146f45	-0.14495571
191	0xbf0ca68c	-0.5494163
192	0xbe76431e	-0.2404904
193	0xbe8af275	-0.27138105
194	0x3df09da8	0.117488205
195	0xbea2fbe8	-0.31832814
196	0xbbe5db93	-0.0070147007
197	0xbd201114	-0.039078787
198	0xbe5fc397	-0.21851955
199	0xbe6e75ce	-0.23287126
200	0x3cd6e7ab	0.026233515
201	0xbce7f028	-0.028312758
202	0x3d2e5f92	0.04257161
203	0x3cc5d9ce	0.024151709
204	0xbee118c7	-0.43964216
205	0x3b36ddd8	0.0027903225
206	0x3e0589e3	0.13040881
207	0x3e0beffb	0.13665764
208	0x3cb4c894	0.0220683
209	0x3d82f5b2	0.06394519
210	0xbecb927a	-0.3976019
211	0x3d08674d	0.03330164
212	0x3dcebe7c	0.10094926
213	0xbed78de7	-0.4210045
214	0x3e4814cb	0.19539182
215	0x3c395dc5	0.01131386
216	0xbe2b1ed1	-0.16710974
217	0x3d515ba2	0.05111278
218	0xbe7370a0	-0.23773432
219	0xbe77d3b9	-0.2420186
220	0xbdaf81a1	-0.085696466
221	0xbef4ae6f	-0.47789332
222	0xbb175ebf	-0.0023097245
223	0x3d87e4e6	0.06635456
224	0xbe8243a8	-0.25442243
225	0xbdd17ce5	-0.102289
226	0xbe25a3c1	-0.16175748
227	0x3c7ce5ac	0.015435617
228	0xbc3f97c5	-0.0116938995
229	0xbe11b480	-0.14229012
230	0x3e494ff5	0.19659407
231	0x3db59481	0.088662155
232	0xbdd5ccb5	-0.104394354
233	0x3e1745ee	0.1477277
234	0xbe060d3c	-0.13090986
235	0x3e47cb37	0.19511114
236	0xbdd95297	-0.10611456
237	0xbcd3af02	-0.025840286
238	0xbd5e7b43	-0.05431677
239	0x3d25d346	0.04048469
240	0xbe9668cc	-0.2937683
241	0xbe3d3054	-0.18475467
242	0xbee805bf	-0.45316884
243	0xbe0df737	-0.13863836
244	0xbe287d5a	-0.16454068
245	0xbf00b231	-0.502719
246	0x3d1e1c43	0.03860117
247	0x3d7aeba6	0.061259888
248	0x3e46c867	0.19412385
249	0xbe231f29	-0.15929855
250	0xbea21f5a	-0.31664544
251	0xbd92bec8	-0.07165295
252	0xbdb64b02	-0.08901025
253	0xbe0c65c8	-0.13710701
254	0xbe6f0b68	-0.23344195
255	0xbe2c0835	-0.16800006

fc2.bias f4 [300]
0	0xbe60dcd0	-0.21959233
1	0xbda51208	-0.0806008
2	0xbe680e54	-0.22661716
3	0xbe81aabb	-0.2532557
4	0x3b0f0f30	0.002182912
5	0xbe27831f	-0.16358612
6	0xbd01f402	-0.031726845
7	0xbdc9c252	-0.09851517
8	0xbe713d1c	-0.23558468
9	0xbde39d86	-0.111140296
10	0xbd6e9211	-0.05824477
11	0xbde37b71	-0.11107529
12	0xbe8b1e05	-0.2717134
13	0xbd886ca1	-0.06661344
14	0xbe0cf413	-0.13764982
15	0xbdb359df	-0.08757376
16	0x3d1624dd	0.03665625
17	0xbd40655f	-0.046971675
18	0xbe0d3b4e	-0.13792154
19	0xbd806fa5	-0.062712945
20	0xbe467758	-0.19381464
21	0xbe1ab448	-0.15107834
22	0xbd3ed285	-0.046587486
23	0xbe10e4eb	-0.14149825
24	0xbb814ab1	-0.0039456715
25	0xbc8f0df5	-0.01746271
26	0xbda1d175	-0.07901279
27	0xbe7e0c41	-0.24809362
28	0xbdd60b0b	-0.10451325
29	0xbe2bbe0a	-0.16771713
30	0xbec1b367	-0.37832186
31	0xbdcc929b	-0.099889
32	0xbdcace9b	-0.09902688
33	0xbc6d4f7b	-0.014484282
34	0xbddda23a	-0.10821958
35	0xbc95d821	-0.018291535
36	0xbe229fc8	-0.15881264
37	0xbda12153	-0.07867684
38	0x3d99b1f9	0.07504649
39	0x3ce480bc	0.027893417
40	0xbd9af931	-0.07567061
41	0xbadc75a1	-0.0016819724
42	0xbdda0702	-0.10645868
43	0xbd3e64bb	-0.046482783
44	0xbeb7028f	-0.3574414
45	0xbd63bdba	-0.05560086
46	0xbe1cd1cd	-0.15314408
47	0xbe36bfe2	-0.17846635
48	0x3c81b3d2	0.015832815
49	0xbde559a8	-0.11198741
50	0xbdee3865	-0.1163185
51	0x3cc539bf	0.024075387
52	0x3c7f9c23	0.015601191
53	0xbb4f9906	-0.0031676902
54	0xbe2f15bd	-0.17098136
55	0xbc363f73	-0.011123526
56	0x3e0a24a3	0.13490538
57	0xbd463dba	-0.04839871
58	0x3d09c79a	0.03363762
59	0xbe237e08	-0.15966046
60	0xbe1d0d1d	-0.15337034
61	0xbd4b5fed	-0.04965203
62	0x3c35924b	0.011082242
63	0xbe16b39c	-0.14716953
64	0xbda78eac	-0.081815094
65	0xbd8533e5	-0.06504039
66	0xbe0d12fb	-0.13776772
67	0x3d37a593	0.04483564
68	0xbe2b4c85	-0.16728409
69	0xbed3e827	-0.41388056
70	0xbd929363	-0.07157018
71	0xbdef3ccc	-0.11681518
72	0xbe218e4f	-0.15776943
73	0xbcee33ae	-0.029077377
74	0x3d8fa59a	0.07014008
75	0x3ce76195	0.028244773
76	0xbec1dc0c	-0.37863195
77	0xbe42c10c	-0.19018954
78	0x3e24d8fa	0.16098395
79	0xbd99617a	-0.07489295
80	0xbe80d562	-0.25162798
81	0xbdcfbcdd	-0.10143445
82	0xbd115620	-0.035482526
83	0x3dc75711	0.097334035
84	0xbe46c55e	-0.19411227
85	0xbe61f5e4	-0.22066456
86	0xbddb8de9	-0.107204266
87	0xbe0c79a1	-0.13718273
88	0xbd4b9812	-0.049705572
89	0x3a1d1d9d	0.00059934874
90	0xbe152944	-0.14566523
91	0xbe4100db	-0.18847983
92	0xbd0cd844	-0.034385934
93	0xbe3ae023	-0.18249564
94	0xbe374a55	-0.17899449
95	0xbcf49657	-0.029856844
96	0x3b8d2b2e	0.004308126
97	0xbe29495b	-0.16531889
98	0x3d71a576	0.058995686
99	0xbe8f60b8	-0.28003478
100	0x3c3ca9c8	0.011515088
101	0xbeae3711	-0.34026387
102	0x3d825273	0.06363382
103	0xbe88b6b2	-0.26701885
104	0xbdeacc9c	-0.114648074
105	0xbd17e868	-0.037086874
106	0xbd3c1244	-0.045915857
107	0xbdf09f7b	-0.117491685
108	0xbe5ebfdf	-0.2175288
109	0xbdb765e3	-0.0895498
110	0xbd7b6b8a	-0.061381854
111	0x3d2eba1b	0.042657953
112	0xbc31955a	-0.010838831
113	0xbe8480e7	-0.25879595
114	0xbe088665	-0.13332517
115	0xbdbeaef6	-0.09310715
116	0xbc926a70	-0.017873019
117	0x3c993dcc	0.018706225
118	0xbdcd34b0	-0.10019815
119	0xbe1b5637	-0.15169607
120	0x3bed3893	0.00723941
121	0xbd417a7e	-0.04723596
122	0x3d885792	0.06657328
123	0xbd98f10b	-0.0746785
124	0xbe8cc259	-0.27492025
125	0xbe8ff4d0	-0.28116465
126	0xbd8c99d8	-0.06865281
127	0xbd789b9e	-0.060695283
128	0xbdfb5d88	-0.12273699
129	0xbe30e4a7	-0.17274724
130	0xbe0c8c6e	-0.13725445
131	0x3c3ac14f	0.011398627
132	0x3c99b687	0.018763794
133	0xbe9eeef4	-0.31041682
134	0x3d0b25ca	0.033971585
135	0xbd9a79c7	-0.075427584
136	0xbd2b345f	-0.04179799
137	0xbe7f678b	-0.24941842
138	0x3c144df4	0.009051789
139	0xbde8e8aa	-0.11372502
140	0xbdb51cc3	-0.088433765
141	0xbe38eb84	-0.18058592
142	0xbdd796d0	-0.10526812
143	0xbe07961b	-0.13240854
144	0xb9d77055	-0.0004109169
145	0x3adeb449	0.0016990985
146	0x3ce4712f	0.027886001
147	0xbc633312	-0.013867157
148	0xbd14446e	-0.036198072
149	0xbd73e049	-0.059540067
150	0xbe31562c	-0.17318028
151	0xbd6e79dd	-0.058221687
152	0xbd9923f4	-0.07477561
153	0xbcc45770	-0.023967475
154	0xbe066958	-0.13126123
155	0xbd8060ab	-0.06268438
156	0xbd4c9635	-0.049947936
157	0xbe0b984d	-0.13632317
158	0xbe20b6ad	-0.15694685
159	0xbd976a6d	-0.07393346
160	0xbbe5ee4d	-0.007016933
161	0xbd1c0b4e	-0.03809672
162	0xbd81db9c	-0.06340715
163	0xbd6f1458	-0.05836901
164	0xbe00d86b	-0.12582557
165	0xbe0375ea	-0.1283795
166	0x3c861eb9	0.016372072
167	0xbc99122c	-0.018685423
168	0xbe046fce	-0.12933275
169	0xbe042ab9	-0.12906922
170	0x3df0902f	0.11746251
171	0xbde5bb4d	-0.112173654
172	0xbd0c8a66	-0.034311675
173	0xbe9c9a2d	-0.30586377
174	0x3b040ee8	0.0020150486
175	0xbe14dd43	-0.1453753
176	0xbc889042	-0.01667035
177	0xbdb487d3	-0.08814969
178	0xbe80716f	-0.25086543
179	0xbe52674f	-0.20547222
180	0xbc46fdfc	-0.0121455155
181	0xbd55cff5	-0.052200276
182	0xbdae2828	-0.08503753
183	0xbe79b75e	-0.24386355
184	0x3cc278d6	0.02373926
185	0xbdc82a84	-0.09773734
186	0xbe140448	-0.14454758
187	0xbdf8a426	-0.12140684
188	0xbdc81130	-0.09768903
189	0xbdcbefe5	-0.099578656
190	0xbe83766e	-0.25676292
191	0xbda5a984	-0.08088973
192	0x3df2c540	0.11854029
193	0xbe17facc	-0.14841765
194	0x3b67ea6e	0.0035387534
195	0xbdf7071a	-0.120619014
196	0xbe734b2a	-0.23759142
197	0xbe177710	-0.14791512
198	0xbc97ba9a	-0.018521596
199	0x3e0b76a8	0.13619483
200	0xbc815974	-0.015789725
201	0xbda51f55	-0.08062617
202	0xbe8922c4	-0.26784337
203	0xbe50acf4	-0.20378476
204	0xbdee58dc	-0.11638042
205	0xbdcfeef5	-0.10152999
206	0xbd8dd7b1	-0.069259055
207	0xbdd1725d	-0.10226891
208	0xbd0ea93d	-0.034829367
209	0x3d1a4b2d	0.03766935
210	0xbcc253f3	-0.02372167
211	0xbe316ae6	-0.17325935
212	0xbcddf095	-0.027092258
213	0xbe34391e	-0.17599913
214	0x3c8c5244	0.017129071
215	0xbde8fb68	-0.11376077
216	0xbc099bd6	-0.008398971
217	0xbd4a07cf	-0.049323853
218	0xbe0726a0	-0.13198328
219	0xbe39463a	-0.18093196
220	0xbd498f8e	-0.04920917
221	0xbe59cfa7	-0.2127062
222	0xbd95a5fa	-0.07307048
223	0x3c0c5868	0.008566
224	0x39bedee1	0.00036405682
225	0xbe67b053	-0.22625856
226	0xbd48f6b1	-0.04906339
227	0xbdf98a55	-0.12184588
228	0xbddb0255	-0.10693804
229	0xbe0164a5	-0.12636049
230	0xbd5e691f	-0.05429947
231	0xbe2a3185	-0.16620453
232	0xbd278759	-0.040900562
233	0xbeaa0324	-0.3320552
234	0xbd86f724	-0.06590107
235	0xbd72d5fc	-0.059286103
236	0xbc99ce28	-0.01877506
237	0x3c55494c	0.013017964
238	0xbddb0413	-0.106941365
239	0x3c77bb2a	0.015120307
240	0x3d9aa33f	0.07550668
241	0xbe805b97	-0.25069878
242	0x3d52a15f	0.051423427
243	0xbe7881b5	-0.2426823
244	0xbe27603d	-0.16345306
245	0xbe84bfb0	-0.25927496
246	0xbdc3a3ae	-0.09552704
247	0xbe11ed78	-0.14250743
248	0xbe632fbb	-0.22186176
249	0x3d34d3a9	0.044147167
250	0xbdd6e3a2	-0.10492636
251	0xbe73f4ac	-0.23823804
252	0xbcb62114	-0.02223257
253	0x3d9211f0	0.071323276
254	0xbe5be1db	-0.21472876
255	0xbe436264	-0.19080502

fc3.weight f4 [4, 300]
0	0x3e4eedcd	0.20207901
1	0xbe45d192	-0.19318226
2	0xbe90c5d1	-0.28275922
3	0x3e95d2fc	0.2926253
4	0x3d9104e1	0.07081009
5	0x3f0e2f0c	0.5554054
6	0x3e274ecb	0.16338651
7	0x3ea90239	0.33009508
8	0x3e96454e	0.2934975
9	0xbda55ca8	-0.080743134
10	0xbe07198c	-0.13193339
11	0xbe8bc7a7	-0.2730076
12	0xbde5568f	-0.1119815
13	0xbea2ca80	-0.3179512
14	0x3d773ec6	0.0603626
15	0x3eccdc85	0.40011993
16	0xbeac8685	-0.3369638
17	0xbe073a64	-0.13205868
18	0x3e4ffe36	0.20311818
19	0x3e5f06f6	0.21779999
20	0x3c8f8733	0.017520523
21	0xbd83a770	-0.064284205
22	0x3f0881a4	0.53322816
23	0x3dc11f50	0.094298005
24	0x3e61576d	0.22006007
25	0xbe88637d	-0.26638404
26	0xbcc36996	-0.023854058
27	0xbe524195	-0.2053283
28	0x3e80e92c	0.25177896
29	0x3c43486e	0.011919124
30	0xbe5e8186	-0.21729097
31	0x3e87511c	0.2642907
32	0xbd0d0e62	-0.034437545
33	0xbe8a1e9f	-0.26976487
34	0xbda3a51f	-0.07990479
35	0x3f2382be	0.6387137
36	0xbd08b2c4	-0.03337361
37	0xbdfee6b0	-0.12446344
38	0x3dabd492	0.08390154
39	0xbeb2df58	-0.34936023
40	0x3e8276fa	0.25481397
41	0xbeacee1b	-0.3377541
42	0x3d2d1bac	0.042262718
43	0xbcb10a45	-0.021611342
44	0xba3d11b7	-0.00072124175
45	0x3e1aa491	0.1510184
46	0xbe338602	-0.17531589
47	0xbe98d715	-0.29851595
48	0xbf04e078	-0.5190501
49	0x3f0aa89e	0.5416354
50	0x3d52d82b	0.051475685
51	0xbe7823f2	-0.24232462
52	0xbe845d03	-0.25852212
53	0xbe86989d	-0.2628831
54	0x3d819b09	0.06328399
55	0xbe4d5673	-0.20052509
56	0x399491ed	0.00028337483
57	0xbe95b1b7	-0.29237148
58	0x3d4a9097	0.049454298
59	0xbf0a58f2	-0.5404197
60	0xbeb22080	-0.3479042
61	0xbd96b91d	-0.07359526
62	0xbe6f0540	-0.23341846
63	0xbddae693	-0.1068851
64	0xbe509879	-0.20370664
65	0xbbfd135e	-0.007723256
66	0x3f1c0663	0.60947245
67	0x3c1ddbe6	0.009634947
68	0xbe6299f3	-0.2212904
69	0x3cd2eb6b	0.025747022
70	0x3d97e5c5	0.07416872
71	0x3e32f70f	0.17477058
72	0x3d748e1d	0.059705842
73	0xbd6c9240	-0.057756662
74	0xbe50f4c7	-0.20405875
75	0x3c0f6b12	0.008753555
76	0x3e721bf2	0.23643473
77	0x3e6d3781	0.23165704
78	0x3d33eb52	0.04392559
79	0xbe3e23ee	-0.18568394
80	0x3e8f1c6c	0.27951372
81	0xbea59501	-0.32340243
82	0x3eac4e1b	0.3365334
83	0xbedb1172	-0.42786747
84	0xbe543215	-0.2072223
85	0x3d7d77d0	0.06188184
86	0xbda34e85	-0.07973961
87	0x3d1e82c6	0.038698934
88	0xbe304047	-0.1721202
89	0xbb3f0a17	-0.00291503
90	0xbe4a788e	-0.1977255
91	0x3e7e1f42	0.24816611
92	0x3f333f57	0.70018524
93	0x3efdc7e9	0.49566582
94	0x3ed6d40b	0.4195865
95	0x3d22d47b	0.03975342
96	0xbea1803e	-0.31543154
97	0x3e28faee	0.16501972
98	0xbe9178e5	-0.28412548
99	0xbe88d041	-0.26721385
100	0x3e1d3171	0.15350892
101	0xbd2d9044	-0.04237391
102	0xbe23dab5	-0.16001399
103	0x3e593169	0.21210255
104	0x3db0cbe1	0.08632637
105	0xbeca633b	-0.39528832
106	0xbe685e7d	-0.22692294
107	0x3eb0c0ba	0.3452204
108	0xbe181d8b	-0.1485502
109	0xbe59e883	-0.21280102
110	0xbc981c13	-0.018568074
111	0xba0aec62	-0.0005299506
112	0xbec79391	-0.38979772
113	0xbe08b164	-0.13348919
114	0xbe3eb8fb	-0.18625252
115	0x3ef86c95	0.48520342
116	0x3dbfcc06	0.09365086
117	0xbdad90fd	-0.0847492
118	0xbe90cf09	-0.28282955
119	0xbd5f5ecd	-0.05453377
120	0x3dc211ea	0.09476073
121	0x3f2aa7f8	0.6666255
122	0x3ebbaf4d	0.3665718
123	0x3e45c6d4	0.19314128
124	0x3c56b985	0.013105755
125	0x3e98bde9	0.2983239
126	0x3e28010d	0.16406651
127	0xbe12ab3c	-0.14323133
128	0xbe257298	-0.16156995
129	0x3ee8e653	0.45488223
130	0xbe871303	-0.26381692
131	0xbed3fa8c	-0.4140209
132	0xbe9bcec7	-0.30431196
133	0xbe9b3317	-0.30312416
134	0x3e77759c	0.24165958
135	0xbdb70717	-0.08936899
136	0x3d1bffca	0.038085736
137	0xbee917c5	-0.45525947
138	0xbe3e3b59	-0.18577327
139	0xbe7bb56e	-0.24580929
140	0x3e6d9eba	0.2320508
141	0xbefd7213	-0.49501094
142	0xbe257091	-0.16156222
143	0xbcf461dd	-0.029831821
144	0xbe8810ad	-0.26575223
145	0x3e29abb2	0.16569403
146	0x3e4fb0f6	0.20282349
147	0x3e153f60	0.14574957
148	0xbf15b097	-0.5847258
149	0x3d947838	0.072494924
150	0x3d060a10	0.03272444
151	0x3b436214	0.0029813098
152	0x3de5cf78	0.11221212
153	0xbed78074	-0.4209019
154	0x3e834c2d	0.25644055
155	0xbe12307e	-0.14276311
156	0xbd9e1c8a	-0.07720287
157	0xbe9ae769	-0.30254677
158	0xbe408b35	-0.18803103
159	0xbe235f2b	-0.15954272
160	0xbf068931	-0.5255309
161	0x3eeac8a1	0.45856193
162	0xbe91cc2f	-0.28476092
163	0x3f2b5d3c	0.6693914
164	0xbeee83e4	-0.46585
165	0xbed61d9f	-0.41819474
166	0xbee6bf15	-0.4506766
167	0x3e874b62	0.264247
168	0x3e468108	0.19385159
169	0xbea73691	-0.32658818
170	0xbdac0ecb	-0.08401259
171	0xbd2bbaa6	-0.04192605
172	0x3ee8a888	0.4544108
173	0x3eab4fbf	0.3345928
174	0xbebca362	-0.368434
175	0x3d56a8b9	0.052407
176	0x3b636739	0.0034698977
177	0x3eadb0eb	0.3392404
178	0x3f5cc31a	0.862352
179	0x3e6ee0ee	0.23327991
180	0x3e7e6bdc	0.24845833
181	0x3b155098	0.0022783633
182	0x3eb0fc10	0.34567308
183	0xbe91d23a	-0.28480703
184	0xbe14ce24	-0.14531761
185	0xbf09a99e	-0.5377444
186	0x3cf5777e	0.029964205
187	0xbe094093	-0.1340354
188	0xbe90be05	-0.28269973
189	0x3e99aa1e	0.30012602
190	0x3dfe730f	0.124242894
191	0xbeeab3d8	-0.45840335
192	0xbdca3f62	-0.098753706
193	0x3e3223d6	0.17396483
194	0xbe8ec6b0	-0.27885962
195	0x3ee43437	0.44571087
196	0xbe02f9f4	-0.12790662
197	0xbe869791	-0.2628751
198	0x3ea0dbf2	0.31417805
199	0xbdf10abb	-0.11769625
200	0x3dd3e6bb	0.10346743
201	0xbd540b0f	-0.05176836
202	0xbd10a0d4	-0.035309628
203	0xbed201d5	-0.41017023
204	0x3eaf865e	0.34282202
205	0x3e8f4f5c	0.27990234
206	0x3c9f731d	0.01946407
207	0xbe1d0a5e	-0.15335986
208	0x3e4fd944	0.20297724
209	0x3e3fc849	0.18728746
210	0x3f06c20a	0.5263983
211	0xbe0f4693	-0.13991766
212	0x3d3cfd33	0.046139907
213	0xbe18348e	-0.14863798
214	0xbddf439e	-0.10901569
215	0x3e8c7e61	0.2744017
216	0xbe8a46ed	-0.27007237
217	0xbc87d807	-0.016582502
218	0x3d9ca913	0.07649436
219	0xbd12b5fe	-0.035818093
220	0xbe74327e	-0.23847386
221	0x3e07e581	0.13271143
222	0x3e2eeb5f	0.17081974
223	0x3f0226a1	0.50840193
224	0x3e5640d8	0.20923173
225	0xbdcb1ef0	-0.0991801
226	0x3e070b6a	0.13187948
227	0xbe8426d7	-0.25810882
228	0x3ee63733	0.4496399
229	0xbef2f901	-0.474556
230	0x3dc2d3d0	0.09513056
231	0xbdad1dcb	-0.08452948
232	0x3e09500e	0.13409445
233	0x3f11d26c	0.56961703
234	0x3e8e9351	0.27846768
235	0x3e8a5425	0.27017322
236	0xbd3350eb	-0.04377834
237	0x3e59b2c5	0.21259601
238	0x3c52f5a2	0.012875946
239	0x3e82aba5	0.2552158
240	0xbd3ef32a	-0.046618618
241	0xbe7fb64c	-0.24971884
242	0x3d4edf8f	0.05050617
243	0xbdf03c63	-0.11730268
244	0x3e7fd0bc	0.2498197
245	0xbedf6b9b	-0.43636784
246	0xbe8e9b43	-0.2785283
247	0xbcbd245b	-0.023088625
248	0xbe9c78eb	-0.30561003
249	0xbe9b1eeb	-0.30297026
250	0xbdc4612e	-0.09588848
251	0xbea942c3	-0.33058748
252	0xbdc4cb11	-0.09609044
253	0xbe21b5e8	-0.15792048
254	0xbb9d585d	-0.0048017935
255	0xbe8d8044	-0.2763692

fc3.bias f4 [4]
0	0xbdc50d10	-0.09621632
1	0xbc5ec872	-0.013597595
2	0x3c054aa2	0.00813547
3	0xbd1450d8	-0.03620991
