critic_parameters.pt (torch_old, 544217 bytes, 5 tensors)

fc1.weight f4 [400, 37]
00000000: 3766 6f3d a219 febd 45d1 4b3e 3e9b f13c
00000010: 09bd 053d 98ad f43c ef4b 2b3e d8c7 8ebd
00000020: bd93 a9bd 87ba 7ebc 991d e3bc f499 78bd
00000030: 4734 e43c 12eb 5cbd e012 d93a 2fc0 763c
00000040: a91e 533e 850c 0ebe e4ba 41bd 42fb 923d
00000050: adb8 a83d 4854 c03d a144 1dbc 833a 8bbb
00000060: 7d21 5c3c e2a6 3b3b 1471 0bbe 3d6f 62be
00000070: dbfc 53be 94b9 2dbc 1ead 3a3e d7d6 e7bc
00000080: 4245 003f 525d 9f3b 6fea 043c 3c03 893d
00000090: 5208 313b f1fd cebd b63d d33e 87ff 763e
000000a0: 65a6 98bd a2a5 c53e 2dfa 6bbe 0317 b93d
000000b0: e7a6 c0bd 9a27 063d a599 113c 5dfd 31bd
000000c0: 90eb a83d 2021 903c e938 493d a1cc 0b3d
000000d0: 2672 99bd fe85 8b3e 92dd 453e fab9 6f3e
000000e0: ed45 3c3e e325 233d 72d1 33bd 1947 cb3d
000000f0: 6a2d 993d ba48 c1bd c540 0fbd d6a8 a3bd
00000100: c318 f33d e8b4 863d f65d 843c eb28 16be
00000110: 425a 853c 41fe 0fbd bac7 3dbc b006 50bc
00000120: 1187 3bbc a908 acbe 92dd b33a 0ee0 9a3e
00000130: 4433 31be ef5f 20bf 30a2 efbe 4c4a 543e
00000140: af36 37bd fa29 6e3d 5bab b93c c4f8 dcbb
00000150: a45c a33d 2b8f 4abd 9a5c 7ebd 8491 db3d
00000160: cb60 e83d b9db 1fbd a95c 603e 57d2 f8bd
00000170: cea1 d83e 1476 86be e582 f03c 72e6 7fbd
00000180: 00f3 583d fa99 273e 5880 153d bedd a1bb
00000190: e24a 243b 195f aa3e ce5f 80bd d2c7 d13c
000001a0: af0f babe 4800 2cbd 0b77 4a3e 4748 ad3d
000001b0: 819b c83d f6d9 923b 6353 1bbe efaf e6bb
000001c0: e8e0 713e 4bea acbd 97df 8a3d c835 07bf
000001d0: 76b8 a4be 3494 6d3d 3a72 9fbd 204e 28bd
000001e0: ef43 e8bd 3814 723d 3849 a23d caab e6bd
000001f0: 3c4d 4b3d 128b 053c ce76 04be 06da ed3e
00000200: 80a1 d63e 43f2 973e 9045 ae3d d23e a5bc
00000210: 4093 373d 419c dabd d833 483d 8884 483d
00000220: c9d7 c53c fbfd 023e 8e30 ce3e 9ab2 24bc
00000230: 40b0 1dbc c84f d3be 0dc7 25bd b736 edbe
00000240: 8f6e ca3d 9ae4 72ba 1bd9 bf3c 2c34 613c
00000250: 0e4b c9bc 9ac7 693c f79f 4ebd a788 1e3e
00000260: a0e8 0b3c 325c e73b 610d 69be dab3 65bb
00000270: bd8c 8abc cb95 393d 0cf8 4bbd a154 d9bb
00000280: ade8 ebba c291 47be a3e1 163e be8e d5bd
00000290: 2b94 583e 5b9a e2bd dd79 a7be 019a 0ebf
000002a0: dac0 db3c 86a7 33bd d813 073e bb23 983c
000002b0: ec1f 873d 6b92 2abd e1f2 6e3e 188a 983e
000002c0: 3b07 db3d 804a d9bb 1f2d a2be e091 69bb
000002d0: 488e f0be 36b9 193d 12da 103c a614 99bb
000002e0: d48d b0b8 06aa 2d3e 0f7d e83d 8f24 8fbe
000002f0: c65a 5d3e b532 51be c63c 95be 663d bfbd
00000300: 44d8 a5bd 1029 17be e43d 9b3e 2ada c1bd
00000310: 131f 19bd cba3 1c3d 46bf 8bbc a636 c83b
00000320: 6110 a13d e156 093d e234 c73e cbe5 eb3c
00000330: 15fd d8bc cdb3 323d 31c2 a23c 4fda 35be
00000340: e5db 8ebd 40f2 eebd cd8e 1a3e fb5f f8bd
00000350: b792 d23e 31a0 283d f6ee 95bc 3af3 f2be
00000360: a0c1 15bb 2312 223e bb1d 02be dba0 b83c
00000370: b1d8 493c 2d2e 15bd 32c8 62be bbae f63d
00000380: 820e 3b3e 092a 15bf f676 ed3e b8e5 0a3b
00000390: 27b9 cbbe 1e71 fc3d 2eb7 663c efb7 c43d
000003a0: 0713 3fb9 8b43 c5bc bb2a 3ebd d57a 05bc
000003b0: 9bbd 4dbd c517 b0bd 0606 86be 9cd1 02bd
000003c0: c442 0ebf b3f3 243d b4fc 50bb 53d3 22bd
000003d0: eeb5 733b 0cba 55bd 205c 84bc 9a43 a53d
000003e0: 42a0 88bd f1b3 d73e dbe6 5ebd 5639 f83c
000003f0: a332 c2be b09d ab3b b772 83be 6bc8 4dbd
0.05844709 -0.12407233 0.19904049 0.02949297 0.03265098 0.029867932 0.16728185 -0.06971711
-0.08280132 -0.015547401 -0.027724074 -0.060693696 0.027856959 -0.053935118 0.0016561411 0.015060469
0.20617165 -0.13871963 -0.047297373 0.0717683 0.08238349 0.093910754 -0.009598882 -0.0042489185
0.013435719 0.0028633405 -0.13617355 -0.22112747 -0.20701925 -0.010603327 0.18230101 -0.028300686
0.5010568 0.0048634196 0.008112534 0.0669007 0.0027013016 -0.10107029 0.4125802 0.24120913
-0.07453612 0.3860293 -0.23044653 0.09037592 -0.09406834 0.03275261 0.008886729 -0.043454517
0.08248055 0.01759392 0.04912654 0.034130696 -0.07492475 0.27250665 0.19322804 0.23410788
0.1838605 0.039831053 -0.043900914 0.0992567 0.07479365 -0.094376996 -0.03497388 -0.07991187
0.11869957 0.06577474 0.016158085 -0.14664046 0.01627839 -0.035154585 -0.011583263 -0.012696907
-0.011445777 -0.33600357 0.0013722649 0.30249065 -0.17304713 -0.62646383 -0.46803427 0.20731467
-0.044729885 0.0581455 0.022664716 -0.0067435224 0.07976654 -0.049452942 -0.06210003 0.10721114
0.11346587 -0.039027903 0.21910347 -0.12149494 0.42310947 -0.2626196 0.02935929 -0.06247563
0.052966118 0.16367331 0.03649935 -0.004939764 0.0025069048 0.3327568 -0.06268273 0.025607977
-0.3634009 -0.041992456 0.19771974 0.084610514 0.09795285 0.0044815494 -0.15168528 -0.007040016
0.23620951 -0.08443125 0.06780928 -0.5281644 -0.32171983 0.058002666 -0.07785459 -0.04109013
-0.11341082 0.059101313 0.079241216 -0.11263235 0.049634203 0.008150833 -0.12935945 0.464554
0.4192009 0.2967702 0.08509362 -0.020171557 0.044818163 -0.10674334 0.048877567 0.048954517
0.024150746 0.12792198 0.4027142 -0.010052348 -0.009624541 -0.41271806 -0.040473033 -0.46330807
0.09884369 -0.00092656317 0.023418954 0.013745349 -0.024571922 0.01426878 -0.050445523 0.15481816
0.008539349 0.007060551 -0.2275901 -0.0035049827 -0.016912812 0.04530887 -0.049797103 -0.006632403
-0.001799842 -0.19489196 0.14734511 -0.104276165 0.21150272 -0.11064597 -0.32710162 -0.5570374
0.026825357 -0.043860935 0.13191164 0.018571725 0.065978855 -0.04164354 0.23334838 0.29792857
0.106947385 -0.0066311955 -0.3167505 -0.0035639927 -0.46983552 0.037530147 0.0088410545 -0.004671651
-8.4187515e-05 0.1695939 0.11351978 -0.2795758 0.21616659 -0.204295 -0.2914793 -0.09337883
-0.0809789 -0.14761758 0.30320656 -0.094654396 -0.03738315 0.038242143 -0.01705898 0.00611003
0.07864452 0.03353012 0.38907534 0.028796097 -0.026487866 0.043628503 0.019867988 -0.1775906
-0.06975535 -0.11667299 0.15093537 -0.12127682 0.4112756 0.041168395 -0.018302422 -0.47451192
-0.0022851005 0.15827231 -0.12706654 0.02253764 0.01231973 -0.03642099 -0.22146681 0.12045046
0.18267253 -0.58267266 0.46379822 0.0021194052 -0.39789698 0.12326263 0.014081759 0.09605395
-0.00018222268 -0.024080059 -0.04642747 -0.008146961 -0.05022965 -0.08598284 -0.2617647 -0.03193818
-0.55570626 0.040271472 -0.0031888904 -0.039752316 0.0037187296 -0.05217938 -0.01615721 0.080695346
-0.06671192 0.42129472 -0.05441938 0.030300777 -0.37929258 0.0052373037 -0.25673458 -0.05023996

fc1.bias f4 [400]
00000000: c40b 863e e9fc 3fbe 5b8c b0be 809e c2be
00000010: beb0 a9be 0da3 f3be 1869 debe 4b58 bbbe
00000020: 9e4f 7ebe 21c6 90be 61ff f0bd d45b 5dbe
00000030: fee5 a8be f754 2ebe 40f1 4fbe f5db a9be
00000040: bff7 cf3c 8eff 76be b4be 30be 0dae fdbe
00000050: 590a a73d e61a 5bbe 12ff 10be e969 5ebe
00000060: 82eb 0ebf e4ff a8be dfa3 4e3e f301 12be
00000070: 9aad 06bf 077c 52be dee0 39be b4c6 e0bd
00000080: 7366 47be 19de 38be 0e42 673e aff2 d8be
00000090: 7016 f7be b832 88be 1cb3 92be 48e2 bcbd
000000a0: a800 16be 538f 9a3e 1925 14bd 5a0a 62be
000000b0: 4293 debe 30d6 9cbe 986e 0dbe 8185 69be
000000c0: 1b59 bcbe aa6a cabe 0871 bebe dd46 e5bd
000000d0: 5cd7 b6be 55a1 b7be 948e 063e bd8d 76be
000000e0: 2212 cabe e30c 8cbe 549a 6cbe ae7f a7be
000000f0: ace6 c1bd 10d6 93be 62ed 27be 877b a3be
00000100: b945 71be 853b a4be b254 b6be b1fa 9fbe
00000110: b77e 14be bfcc cfbe af5a 3cbe ad73 99be
00000120: 7871 be3d be41 963d 0592 60be 1eef 89be
00000130: c626 97be 73ff 35be bc94 5ebe 5dfd e5be
00000140: d89e aabe e79f 62be d2b8 b5bd 1551 c6be
00000150: 0d9f 03be fb4b 39be 4ef5 10bf 32ba afbe
00000160: 53d7 15be 08c1 1c3e a9a8 c1be d3ce b2be
00000170: d5ee 51bd 5f82 77be fe21 8f3e 86c0 3f3e
00000180: 4401 31be 1dfb 76be 0f12 aebd 5256 c2be
00000190: b18a a3be fffa f0bd 40a5 8abe 3fac 90be
000001a0: 5a54 1b3d 6b1d 23be 5216 f0bd b5e8 05bf
000001b0: 9708 21be 3bfb acbe c443 f5be bb90 22be
000001c0: f17c bd3d 2269 99be c046 f1be 2678 08be
000001d0: f08a e9be 352e b7be ecba b4be a225 f3be
000001e0: a292 e8bd 4fda adbe a412 40be 032f 78bd
000001f0: ab05 59be 9c40 b2be 79da 3d3e a085 f7bd
00000200: 9c09 fdbc 72bc 01bf a9ba 0dbe 9231 b3be
00000210: 3b87 9bbe 7381 6bbe daf1 1fbe a25a 98bd
00000220: 7b07 93be a926 9dbe b632 e0be 092d b3be
00000230: cfef 87be a63c 97be 71d6 d7be b099 31be
00000240: f2a8 70be 0f8d b9be 4aec 8abd ad68 34bd
00000250: c54d c1be 1108 f73d 5d07 a9be 78e3 b7be
00000260: 059b 93be 8a64 9bbe d981 8ebe c59b 473e
00000270: 4555 c9be 4cf8 9bbe a6d2 91be 8d2e 80be
00000280: e105 a53e a1d3 2eba 3fa6 c9be 1dda f2bd
00000290: caed 9fbe 3848 aebe c3b9 8c3d 5fec fbbd
000002a0: 618a 47be 39ba 2bbc 5009 bebe 0dda 08bf
000002b0: 32eb 96be 196d 91bd e2d3 bcbd 361c 8dbe
000002c0: 7cc7 bcbe ce43 04bf 2bce 0c3e be9b a0be
000002d0: 6570 40be 8a50 1abf 01ed dabe 9aa3 f3be
000002e0: ee9f a4bd a078 a6be 4595 babe 9f46 73be
000002f0: 7f4f 51be 7dca a7be e17e 18be 5b9f 47be
00000300: e10c f6be b807 f3bd 8fb4 37be ab88 21be
00000310: 85d9 b3be 56ff 98be af95 82be 5a09 b7be
00000320: 3ff6 aabe b341 14be a5c7 b4be eda0 b9be
00000330: 8343 97bd f9b3 bdbe 1647 68be 22a7 babe
00000340: 57cf 6fbe 0773 90bd eab7 273d 6104 b7be
00000350: b0c3 9dbe cd48 8bbe dc08 89bd d02a 9fbe
00000360: 28b6 be3b cef4 f1be 064f 95be 04a6 1cbe
00000370: a522 53be 1835 87be 0a98 c0bd ca7a d7be
00000380: 2c82 29be 2bf4 5b3e 7cd4 4fbe bdda 9fbd
00000390: 3a93 bebe db60 97be 649a 003e f8ae 41be
000003a0: 5917 88be 7ac1 f4be 8904 73be aff0 74be
000003b0: c0fd b7bd 8bfa a3be 2bab b2be 5a27 57be
000003c0: e0a2 75be 624c a23e d927 a7be 7d95 d4be
000003d0: 628d b7be 39da 7bbe cbb9 3b3d 5e74 4cbe
000003e0: 79e8 6abe 706b 51be d2d2 57be 5178 e6be
000003f0: e9a2 81be 61b5 52be e58b fdbd 7ab9 f0bd
0.2618085 -0.18748821 -0.34482083 -0.3801155 -0.33142656 -0.47585335 -0.43439555 -0.365908
-0.24835059 -0.2827616 -0.1176746 -0.21617061 -0.3298797 -0.17024599 -0.20306873 -0.33175626
0.02538669 -0.24120924 -0.17260247 -0.49546853 0.081562705 -0.2139698 -0.14159802 -0.21720089
-0.55828106 -0.3300773 0.201797 -0.14258556 -0.52608645 -0.20555125 -0.18152186 -0.109753996
-0.19472675 -0.18053474 0.22583792 -0.42372653 -0.48259306 -0.26601195 -0.28652275 -0.09222847
-0.14648688 0.30187473 -0.03616819 -0.22074261 -0.43471724 -0.30632162 -0.1381172 -0.22804834
-0.36786732 -0.39534503 -0.3719561 -0.11195157 -0.3571118 -0.35865274 0.13140327 -0.24077506
-0.3946696 -0.27353582 -0.23105747 -0.327146 -0.09467825 -0.28874254 -0.16399148 -0.3193018
-0.23561753 -0.3207666 -0.35611492 -0.3124595 -0.14501463 -0.40585896 -0.18393968 -0.29971066
0.09298986 0.07336758 -0.21930702 -0.26940244 -0.2952177 -0.17773227 -0.21736425 -0.44919863
-0.33324313 -0.2213131 -0.08873142 -0.38733736 -0.12853642 -0.1809539 -0.56624305 -0.34321743
-0.14632921 0.1530801 -0.3782399 -0.3492342 -0.05125316 -0.24170826 0.2795562 0.18725786
-0.17285639 -0.2411923 -0.08499538 -0.37956482 -0.3194175 -0.11766624 -0.270792 -0.28256413
0.03792224 -0.15929191 -0.11723007 -0.5230821 -0.15725933 -0.33785424 -0.47903264 -0.15875523
0.09252346 -0.29963022 -0.4712429 -0.13327083 -0.45613813 -0.3577744 -0.3529886 -0.4748965
-0.11356093 -0.3395562 -0.18757111 -0.06059171 -0.21193568 -0.34814918 0.18540372 -0.12086034
-0.030888371 -0.5067817 -0.13840736 -0.34998757 -0.3037661 -0.229986 -0.15619603 -0.07439162
-0.28716645 -0.30693558 -0.4378869 -0.34995297 -0.26550147 -0.2953846 -0.42155793 -0.17343783
-0.23501948 -0.36240432 -0.0678335 -0.04404514 -0.37754646 0.120620854 -0.3301343 -0.35915732
-0.28829208 -0.30350143 -0.2783344 0.19493015 -0.39322868 -0.30462873 -0.28481025 -0.25035515
0.32231048 -0.00066691084 -0.39384648 -0.11858008 -0.31236106 -0.34039474 0.06871369 -0.123009436
-0.19486381 -0.010481411 -0.3711648 -0.5345772 -0.29476315 -0.07100887 -0.09220101 -0.27560586
-0.36870944 -0.5166596 0.13750522 -0.31368822 -0.18792875 -0.6027914 -0.42758945 -0.47585756
-0.08038317 -0.32513905 -0.3644201 -0.23757409 -0.20440482 -0.32771674 -0.1489215 -0.19494383
-0.480567 -0.118667066 -0.17939971 -0.15774791 -0.35126892 -0.29882306 -0.25504825 -0.35749322
-0.33390996 -0.14478187 -0.35308567 -0.3625559 -0.07385924 -0.3705137 -0.22683367 -0.36455637
-0.23418938 -0.0705319 0.04094688 -0.35745528 -0.3081336 -0.2720398 -0.06691143 -0.3108735
0.0058200546 -0.47257084 -0.29161853 -0.15297705 -0.20618685 -0.26407695 -0.09403999 -0.42085868
-0.16553563 0.21479861 -0.202959 -0.07805393 -0.372217 -0.29566082 0.12558895 -0.18914402
-0.26580313 -0.4780386 -0.23732199 -0.23919939 -0.08983946 -0.32027087 -0.34896216 -0.21011105
-0.23987913 0.316989 -0.3264759 -0.415203 -0.35850054 -0.24594964 0.045831483 -0.19966266
-0.22940244 -0.2045114 -0.21076515 -0.4501367 -0.25319603 -0.20577003 -0.123801984 -0.11754127

fc2.weight f4 [300, 400]
00000000: 83af 4cbd 74ee 6abd 1993 afbc 9511 24bc
00000010: 1069 28bd 39c8 28bb 54d9 60bd 2d68 eabc
00000020: c22a 25bc 834a 6c3d 3e32 9d3c 407a 1fbd
00000030: cece 063c cd04 673b 1724 293c 194e 583c
00000040: c5b0 d83b 4d8a e93c 0607 4c3b f336 10bc
00000050: 171a 553c 3f6a 8dbd bf5d a43a e1d4 16bd
00000060: 501c 2c3c 602d 86bd 7225 90bc 08b7 623c
00000070: 16e1 22bd c7e7 653c 4393 253d 9aff 16bd
00000080: 2c8b 6dbd 42cb 34bd 7e5c afbc 63fb 173d
00000090: 967a 24bd 0dc0 15bd c75b 373d 3d34 b63c
000000a0: 8f41 1bbd 8408 2bbd 365c 01bc ee69 6abd
000000b0: f809 46bd 22fd cbbc f1c7 86bc 5acd 5fbc
000000c0: 0682 133d fb82 c63c 199a f4bc 8f7a adbb
000000d0: 915f 233d 6d4b f73c da0b 0abd ccfb 26bd
000000e0: 9569 2fbc 67e0 1fbd 5baa 2d3c 69b8 20bd
000000f0: 3479 4b3c 13bc f6bc 731d 143d f72a 423c
00000100: e5dd dabc c7e8 ddbc 5d6d 74bc 6eeb 6d3c
00000110: 6b96 83bc 5632 223d cd22 93bc f4b8 9ebd
00000120: e99f d13c 4dd6 82bd 204b b0bb 9fb5 04bc
00000130: cbf8 da3c 9f6b 12bd dd0a 0f3d 15a8 3cbd
00000140: 8c7a 0e3d 03a2 cebb 7686 9a3c bdab 48bc
00000150: e71f 47bc 1ec3 3a3c d834 d63a 27b5 0fbd
00000160: 2e08 6bbd 2b87 47bd 7d9b e7bc ae96 2cbc
00000170: 75ee d23c f589 113d 2eef d9bc 7398 82bd
00000180: 33e8 4fbd bf2b abbb 18a3 adbd d416 003d
00000190: a128 48bd 0514 80bd 9b92 c53c d2f0 f03c
000001a0: 639d bcbc a24b 573d 797f 42bd 6dd6 5bbc
000001b0: 270f 17bb cee8 a0bd 959c 7fbd b64f dfb8
000001c0: 7e85 1e3d 0f1c 5dbc 181d 5cbd 8b05 dabc
000001d0: ae03 713d eece c3bc c7ad 18b9 0d42 21bd
000001e0: 11cf eb3b e7f9 c5bc 2d7e 86bc 5ecf 7739
000001f0: ed96 26bd e6c9 ee3c eb30 4bbd fafb 69bd
00000200: ec6d efbc de00 93bc de39 d4bc f232 c8bb
00000210: 11ed b4ba 36d8 35bd 60cf a33a 67db 80bc
00000220: 2d66 adbc 7c14 15bc 90c4 44bd 218c 51bd
00000230: 5172 533c d503 32bb 68bf db3c e79c 1cbd
00000240: d2bc 433d 6b8f 7ebc 173f 91bc 24de d33c
00000250: 0e3f 8ebc 4f87 6fbd df77 bcbc 6b65 8e3c
00000260: b93c dfbb 2056 9b3c 8ab2 aabb d774 7f3c
00000270: d700 a8bc 1dea acba 1966 663c a962 53bc
00000280: 786a 8dbd bd16 103c 8687 e83b 6e97 62bd
00000290: 2cf7 4abb 860f 36ba 3104 86bc c525 c83c
000002a0: 2291 0ebd ce59 89bb c2d9 05bd 1feb 35bd
000002b0: 078e 34bc 5e3a dc3b c3ea 71bd 2b7b 0a3d
000002c0: b0e4 323d 610c d0bc 457c 01bd e393 20bd
000002d0: 3a56 8a3b fc8c 19bd d4f4 1cbd 38a8 353d
000002e0: ecfb 373c d00f 4dbd b13d ec3a fdb8 3a3d
000002f0: c575 ddbc a562 1d3d c04c c83c 4f64 5dbb
00000300: 13d9 ed3b df16 b4bc a99a 07bd c907 12bc
00000310: 848f 70bc ab75 9a3c 0430 8cbc 9b3d 803c
00000320: d38b 193d 0418 65bd b704 f9bc ec5e a1bd
00000330: cedf c43c 5d3d d93b 7c73 14bb 1681 d63c
00000340: 5266 93bc 0711 0abd f322 e03c 2530 05bd
00000350: db1c a1bd 18ac 07bc 3da7 37ba 44fb 62bc
00000360: a6f0 23bd 0206 76bb c832 15bd 6370 5e3a
00000370: 0cb0 9a3a 80ec 42ba 9e57 0a3d 4acd 463c
00000380: 4f84 003d c22f 7bbd fda1 65bc 7f65 b73c
00000390: 75ff 8bbd e670 82bc 4f9e 26bc 1ae2 203d
000003a0: 4cda 8cbd b4c9 ecbb 218a 8ebb 0304 82bd
000003b0: 37b0 57bd 57f4 3ebd a2eb c73c ef71 a53c
000003c0: 3a67 34bc 3dcf abbc b9f5 3ebd 6c2d 12bb
000003d0: 3359 1b3d 41eb 8b3d 8dea 5cbd 88fd 943c
000003e0: 8deb 29bd f5f3 6bbd 657d 673c 1153 253d
000003f0: 6fa3 14bd 2643 9e3c b580 623d dc3a fc3c
-0.04997207 -0.057356313 -0.021432446 -0.0100139575 -0.04111582 -0.0025754108 -0.05489476 -0.028614128
-0.010080995 0.057688247 0.019188996 -0.038934946 0.008228017 0.0035250664 0.010323546 0.013202214
0.0066128694 0.02850833 0.0031132116 -0.008802163 0.013006709 -0.069050305 0.0012540146 -0.03682411
0.010504797 -0.06551623 -0.01759598 0.013837583 -0.03976544 0.014032311 0.040423643 -0.036864854
-0.057994053 -0.044139154 -0.021406408 0.037104975 -0.04015597 -0.036560107 0.04476526 0.022241706
-0.03790432 -0.041756168 -0.00789552 -0.05722993 -0.04834935 -0.024900977 -0.016452761 -0.0136597995
0.036012672 0.024232378 -0.029858636 -0.005294151 0.03988606 0.030187333 -0.03370271 -0.040767476
-0.010706325 -0.039032366 0.010599698 -0.039238367 0.012419034 -0.030118978 0.036160897 0.011851064
-0.026717136 -0.027088536 -0.014918652 0.014521463 -0.016062936 0.039598785 -0.01796093 -0.07750121
0.025588946 -0.06388531 -0.0053800493 -0.0080999425 0.026729962 -0.035747167 0.03492247 -0.046058733
0.03478484 -0.0063059344 0.018862944 -0.012247977 -0.012153602 0.011399059 0.0016342653 -0.03508487
-0.057380848 -0.04871289 -0.028272385 -0.010533972 0.02574847 0.035531957 -0.026603308 -0.06376734
-0.05075855 -0.005223721 -0.08478373 0.03127177 -0.04886687 -0.062538184 0.024117758 0.029411707
-0.023024267 0.052562363 -0.04748485 -0.013417822 -0.0023049803 -0.07856904 -0.062405188 -0.00010648316
0.038701527 -0.013495459 -0.053738683 -0.026613971 0.0588414 -0.023902383 -0.00014560587 -0.03936963
0.007196315 -0.024167014 -0.016417587 0.00023633006 -0.040671278 0.029149007 -0.0496072 -0.05712507
-0.02922722 -0.01794475 -0.0259065 -0.006109589 -0.0013803561 -0.044395648 0.0012497716 -0.01572962
-0.021166885 -0.009099122 -0.04803902 -0.051159028 0.012905673 -0.0027162929 0.026824668 -0.03823557
0.047787495 -0.015537123 -0.017730279 0.02586276 -0.017364051 -0.05847865 -0.023006378 0.017382344
-0.0068126586 0.018961966 -0.005209272 0.015591822 -0.020508213 -0.001319233 0.014062428 -0.01290194
-0.06905073 0.008794484 0.007096234 -0.055320196 -0.003097008 -0.0006945062 -0.01635942 0.024432072
-0.03480638 -0.0041916138 -0.032678373 -0.044413682 -0.01102019 0.006720825 -0.059061777 0.03380887
0.043675125 -0.025396528 -0.031612653 -0.039203536 0.004221705 -0.03748797 -0.038319424 0.04434988
0.011229496 -0.050063908 0.0018023757 0.045586575 -0.027033696 0.038424153 0.02445066 -0.0033781712
0.0072585433 -0.021983562 -0.03310648 -0.008912989 -0.014682654 0.018854937 -0.01711274 0.015654376
0.037486862 -0.055931106 -0.030397756 -0.07879433 0.0240325 0.0066296295 -0.0022651842 0.0261846
-0.017993126 -0.033707645 0.027360415 -0.032516617 -0.07866832 -0.008280776 -0.00070058164 -0.013853852
-0.040024422 -0.0037540202 -0.036425382 0.0008485375 0.0011801734 -0.0007435754 0.033774965 0.012133906
0.03137618 -0.061324842 -0.014015672 0.022387264 -0.06835834 -0.015922975 -0.01016958 0.039278127
-0.06877574 -0.0072261933 -0.0043499623 -0.063484214 -0.052658286 -0.04661974 0.02440435 0.02019593
-0.011010939 -0.020972842 -0.046621058 -0.0022304906 0.037926864 0.068319805 -0.053934623 0.0181873
-0.041484404 -0.057605702 0.0141290175 0.04036242 -0.036288675 0.019319128 0.055298526 0.030789785

fc2.bias f4 [300]
00000000: 3ea3 25bd 2179 b2bc 638d 11bd b382 de3c
00000010: b2b6 40bd 2b56 19bc c1e0 aabb ee71 113c
00000020: e7ba 7abd 7c56 3ebd d89f e6bd 67bc 5abd
00000030: 95ff a2bd fbcf 803e f740 073f 7752 0d3e
00000040: 54f2 95bd e757 b93e 6ee2 64bd 50ae d0bc
00000050: 1183 21bd baa6 d83b f44d 42bd a072 183e
00000060: cf12 3f3f 93d2 74bc 7008 ddbc 4817 1fbc
00000070: d4bf 88bc c08e d13c 8321 77bd bd3a 123b
00000080: 556f ffbc 409a e9bd 67b5 b43c f13e 4f3e
00000090: c683 70bd d9bf 27be 525e 85bc 3f71 57bd
000000a0: 1f0d 99bc c9a6 923c 42b4 aebd a800 a3be
000000b0: b6cb 863c 4b6a 2e3d f204 b03e b012 58bd
000000c0: 3f8e 26bd 5348 003d 97c1 903e 5d8f 0bbd
000000d0: b026 173e 6fda c9b9 9c8b 773c 343c 57bd
000000e0: a378 38bc 8a23 593e ccaa 89be f366 903c
000000f0: e10c 2a3c a1c5 9bbd caa5 26bd 19d4 80bc
00000100: 8a0c 9ebc 1fcf 76ba b311 2a3c 17ad 65bd
00000110: 40b4 6f3b baa6 613c b467 b4bc 83ba 7e3e
00000120: 60c3 7f3c 911d 193d b687 13bd e7d0 db3c
00000130: 6931 1abc 6b5e 763e c69a 63bb e005 dbbc
00000140: f61a 4e3c b644 c9bc 29d4 813e 2b15 d4bb
00000150: 7442 1b39 938f dcbc 1202 b3bc 0fe8 65bd
00000160: 84d0 523e d945 933e 028a 203d ad82 343d
00000170: cee0 8dbe e4d5 83bc f2f3 903e 77ac 19bd
00000180: 80a3 8bbd 27b3 fdbc 5a6b b3bd 45d3 63bd
00000190: a486 603e 44a6 9bbc cf57 9d3e 407e 29bd
000001a0: 7b32 0cbd ff70 55bd f7eb 073f a807 73bd
000001b0: a475 3bbd 14b6 5fbd 326f 56bc baa7 29bc
000001c0: 621b 583e 743f 88bd 1d48 78bc e638 ba3a
000001d0: 7da5 dc3e bce0 92bd d9d0 d0bc fa8a 3ebd
000001e0: 0be9 3e3d 2a8d 0b3d d6d1 32bc fe72 40bc
000001f0: 468e bcbc 7c03 7a3b 39ae 98bb ba19 cc3e
00000200: aba0 4cbc 53ba 013b ff69 80bd b3c1 7bbd
00000210: 557b 803e 6e4d 8f3e bdb9 72bd 04d7 5dbc
00000220: 40eb 94bd 4a8c 14bc 0756 173c 4ad1 8bbd
00000230: 72e5 67bc b674 1e3e d7a8 cc3e f343 71bd
00000240: 8d98 e2bc 8978 6dbc 3747 c43b 63a3 ebbc
00000250: def6 0a3f 23c8 3c3c a9a8 ecbc 4e65 36bd
00000260: 82bc d2be c925 1bbd 7d98 15bc 14d3 93bd
00000270: 3821 943e 5b81 b0bc 496e 94bd 8b8f 77bd
00000280: 68f9 12bd 9670 fdbb 54e3 643e 80dc 80bd
00000290: 8024 573e b50c 093c 30a4 b4bc bcfa 233f
000002a0: 1813 fe3c af3b 113e 0cd5 393b 8ac5 b3bd
000002b0: 3c5a b03c dc98 86bc f319 44bd da06 a4bd
000002c0: 93f7 6a3c 2c4c 283f 11c7 93bd 3566 253e
000002d0: 2723 163e 769c b3bc 4e61 96bd 6d5a f6bd
000002e0: b040 81bd 6fc2 543c 3374 efbc 1f35 f3bb
000002f0: 6b42 e1bc a790 f63b b673 a6bd f218 833c
00000300: e20e 97be 7586 663c ff7a 7bbe f826 c43b
00000310: 97e7 cebc 7a3a 6fbe c190 9b3c e585 493e
00000320: fcb6 ffbd b84c 16bc 9521 d13c 3ac8 9d3e
00000330: ff8d 76bd 5dad ab3e 02ef dd3c 6be6 623c
00000340: 719e 883c 720e bd3c e6a5 1cbd 6dce 9abe
00000350: af4f 703c 2f6a 943e 5f06 86bd 1419 2ebd
00000360: cfb4 0b3d 6c43 86bc f122 a4bd 269b 8abd
00000370: b965 8b3c 7a0e 0abe 4f82 6a3c cd7b 3b3e
00000380: 7b65 f2be ad59 07bd cdce c1bd 06b1 ca3c
00000390: 8ba9 5ebd 8ab9 1fbc 24cc d9bc cd44 03bd
000003a0: ad75 76bd 123e 913e e698 b8bd 0304 a53e
000003b0: 1536 f53c 350f 8bbd a724 4bbd 1a6a bbbb
000003c0: a989 48bc 150e 23bd d03d 7e3e 733b 79bd
000003d0: 5d12 40bd 4665 43bd a246 073e f2d6 94bd
000003e0: d5e2 973c db98 fbbd 70c9 adba ccb2 9dbd
000003f0: b0ee 24bc 8e86 c43b bba1 983e 2dba 543e
-0.040438883 -0.021786274 -0.035535228 0.027161932 -0.04704923 -0.009358923 -0.005214781 0.008877261
-0.0612134 -0.046469197 -0.112609565 -0.05340233 -0.07958905 0.25158677 0.52833503 0.13800989
-0.07321611 0.36199877 -0.055880003 -0.025473744 -0.039431635 0.006611672 -0.047437623 0.14887476
0.74638075 -0.014942783 -0.026981562 -0.0097101405 -0.016693033 0.025580764 -0.060334694 0.0022312843
-0.031181017 -0.11406374 0.022059156 0.20238854 -0.05871942 -0.16381778 -0.016280327 -0.052598234
-0.018683014 0.017901795 -0.08530475 -0.31836438 0.016454559 0.042581838 0.34378773 -0.052752197
-0.040663 0.031318974 0.28272697 -0.03407227 0.14760852 -0.00038500453 0.015108969 -0.05254765
-0.011259231 0.21204963 -0.2688812 0.017627215 0.010379047 -0.07606054 -0.040685453 -0.015726136
-0.019293088 -0.0009415019 0.010380196 -0.056073274 0.0036575943 0.013772661 -0.022022106 0.24875836
0.015610546 0.037381712 -0.036018096 0.02683301 -0.009411194 0.24059455 -0.0034729703 -0.0267362
0.01257967 -0.024568897 0.25357178 -0.00647225 0.00014806708 -0.02692393 -0.021851573 -0.05612951
0.20587355 0.28764227 0.039194115 0.044069935 -0.27710575 -0.016093202 0.28311116 -0.03751799
-0.068182945 -0.030969216 -0.0876071 -0.055621404 0.21926361 -0.01900018 0.30731055 -0.041380167
-0.03422783 -0.052109715 0.5309443 -0.059333473 -0.045766488 -0.054617003 -0.0130880345 -0.010354931
0.21104196 -0.06652728 -0.015153912 0.0014207631 0.43095008 -0.07171771 -0.025490211 -0.046519257
0.046608966 0.03407017 -0.010914287 -0.011746166 -0.02301706 0.003814905 -0.004659441 0.39863378
-0.012489478 0.0019794896 -0.06270217 -0.061464023 0.25094095 0.27988762 -0.059259165 -0.013540033
-0.07271433 -0.009066651 0.009236819 -0.06827028 -0.014153825 0.15474209 0.39972565 -0.058902692
-0.027660633 -0.01449407 0.005989935 -0.028764432 0.5428294 0.011522326 -0.028889017 -0.044530205
-0.41159445 -0.03787783 -0.009130594 -0.07217994 0.28931594 -0.021546056 -0.07247598 -0.060439628
-0.035882384 -0.0077343686 0.22352344 -0.06292057 0.21010017 0.008364846 -0.022050947 0.64054465
0.031014964 0.14182924 0.0028355746 -0.08777912 0.021527402 -0.01643031 -0.04787631 -0.08009119
0.014341253 0.6574123 -0.07215703 0.1615227 0.14661847 -0.021925192 -0.07342778 -0.12028966
-0.06311166 0.01298581 -0.029230213 -0.007422104 -0.02749749 0.007524568 -0.08127539 0.016003106
-0.29503542 0.014070143 -0.24558638 0.0059860907 -0.025256915 -0.23362151 0.018989922 0.19679983
-0.124860734 -0.009173565 0.025528708 0.30816823 -0.06019401 0.33530703 0.027091507 0.013848881
0.016677113 0.023078177 -0.03824415 -0.30235615 0.014667436 0.28987262 -0.06544184 -0.042504385
0.03410798 -0.016389571 -0.08014477 -0.067678735 0.017016279 -0.13482085 0.014313295 0.18308945
-0.47343048 -0.033044506 -0.09463272 0.024742614 -0.054360908 -0.009748826 -0.0265866 -0.032048035
-0.060170818 0.28367668 -0.09013538 0.32229623 0.029933015 -0.0679001 -0.0495955 -0.0057194354
-0.012239852 -0.03980835 0.24828267 -0.06084771 -0.046892513 -0.047704004 0.13210538 -0.0726756
0.01854078 -0.12285014 -0.0013258886 -0.077001184 -0.010066673 0.0059974855 0.2981089 0.20774145

fc3.weight f4 [1, 300]
00000000: 91c2 50bb afb5 663c 78af 933b fcbb 913c
00000010: 1924 aebc a923 5b3a c34c cc3c a9d2 9d3c
00000020: 4b7f aabb f8dd 3bb9 fa8b 15be d30d 13bc
00000030: ee96 8fbb 1b44 5b3d 2309 293d af0d 753d
00000040: 0563 dc3b f7a2 9b3d bf64 78bb 64e2 cebb
00000050: f2fd 60ba b679 25bb 1c2d f93b 96a4 1e3d
00000060: c2ab 0b3e a07f 093c 89cb b43c 21dd 63bd
00000070: c7a5 c53b 7891 a9bb cf6e adbb 5c6d d1bb
00000080: fd2a cb3b 219f 75bd cb4a 213c fdbe 973c
00000090: 4941 03bb a325 abbc 2159 ddbb 395d 40bb
000000a0: 9fbd 19bb 4af6 c53b 3927 183c 266e 67bd
000000b0: efcb f53b f623 d63d 98f6 073d 24c6 763c
000000c0: ea17 af3b be08 503d 418a 4e3d bdc3 bfbb
000000d0: 97b3 353d 3b40 a53d 019a fa3c c95b c4ba
000000e0: 0035 0bbb bc29 073e 66d5 97bd 43d2 febb
000000f0: 7848 b03c fa98 c7ba b40c 70bd 8382 453d
00000100: 0a21 00bb 579c a8bb 1afc eb3b 36a1 a83b
00000110: 90b9 9fbb 93cf 24bc afd1 303b 9944 293d
00000120: 095b cfba a189 443d 8ee0 5cbc 6173 aebb
00000130: a22c 923b 9e8e 7f3d 303b 563c 0ed8 fa3b
00000140: 7921 c1bb 5b9d b83a b07d bf3c 413a 4a3c
00000150: 946c 0fbc 0e59 95be 8067 17bb 3fb0 25ba
00000160: 8705 103d 65b3 4e3d 64b9 a03b 7207 f23b
00000170: 980e 96bc 99d0 61bb b6c5 253d 3ffe bf3d
00000180: 4133 233c 813d e13b ad33 73be c881 d53b
00000190: 839d 703c 50c0 113c c409 373d 934b 34bd
000001a0: 9704 043c e68c 1ebb a78e 5d3d bb8c 763b
000001b0: c4e4 10bd cc0e 223b b353 21b9 4d85 723b
000001c0: f77d 293d cabd 34bb c1b3 05bc 712f f4bb
000001d0: 4c05 d53c 1e8b b6bb eaac 2e3b 80e9 bfbb
000001e0: 3da8 293d b830 833d 0100 7cbc bc74 043c
000001f0: 8940 4e3b be85 773c f097 d2bb 70c1 ef3c
00000200: 4208 4b3b c76c d23b d48f e23a 6433 87bb
00000210: e6fd 403d d625 093e e330 143b 8499 783b
00000220: 907c 543c 21a8 a2bd 28a5 9d3b 192d 6dba
00000230: 4e25 453c a513 f33d 5844 723d 23b7 313c
00000240: 47f5 d33b fcfe 333d 16f8 243b aaf7 6b3b
00000250: 8188 943d 4f07 dcbb 0a61 833d 01ea 093c
00000260: 044c 00be 9d87 e33b e9a3 87bc 708c f2bb
00000270: 0106 323d 5593 cb3a 0ad0 28b9 6dc1 78bb
00000280: 6f89 173b 0543 63bb 9b43 d03c 01e2 303a
00000290: a10c f23c 7363 e0bb 8c2e d33a 2272 4e3d
000002a0: a9c7 49ba 92ae b23d 8e38 4e3c dda9 69bb
000002b0: 215e 653c c703 a539 2dcf a03b 5f88 f4b8
000002c0: 3221 8a3b bd6a bc3d 74c8 1ab9 8480 273d
000002d0: d80e aa3d ae4a 1c3a eb97 9dba 6c75 09bd
000002e0: 89d3 063c 4e12 8b3a 0ea2 f4bb 767d 37bb
000002f0: ab96 d03b 2e2f 1b3a 7082 cd3b 83f4 a2bb
00000300: a17f 05bd fc8e c63c d23f e2bd 3cdc 3a3b
00000310: 06f5 1d3c ceae 43bb ff21 a4ba d720 fa3c
00000320: c88c fcbc 3418 1d3b 8ce1 8e3d 9585 7e3d
00000330: 755c 9539 b65d 023e d8ba 6e3b 52b0 8d3d
00000340: 737c 683b 5ef9 2f3c b4af 3ebd a7a4 8abd
00000350: 0438 ba3b 2e3e 133d 4cab debb f9a3 f83b
00000360: 6b5e 7f3d 47e3 693d 48ed 8fbd af9a 483c
00000370: ae29 873c 4c76 26bd 0766 093b 3a37 313d
00000380: 3ccf 08be bfe7 29bb bd59 1ebd d823 acbb
00000390: 2d8d f2bb 8843 a93b 4990 813b 0938 c9bb
000003a0: e0d1 3fbb 3ab0 8c3d c52a ae3a 9ef9 1f3d
000003b0: e670 1bbb 68c1 8f3a 62e4 c83b ed40 633b
000003c0: aa02 28bb 5671 c63a 6f21 4c3d 570f af3c
000003d0: a8d7 053c 4575 dfba a7c9 be3c e6af 08ba
000003e0: 3dc0 1b3b 96d2 23bd 27c9 043c 334a 5e3d
000003f0: c181 babc b7c2 51bb a318 2f3d f4ab 423d
-0.0031854252 0.014081403 0.0045070015 0.017789833 -0.021257447 0.0008359501 0.024938947 0.01926549
-0.005203163 -0.000179164 -0.14604178 -0.008975464 -0.004382006 0.053531747 0.04126848 0.059827503
0.0067256712 0.075994425 -0.0037901846 -0.006313609 -0.00085827627 -0.0025249547 0.0076042544 0.03873118
0.13639739 0.008392245 0.02206971 -0.055630807 0.006031725 -0.005174812 -0.0052927504 -0.0063912105
0.006200193 -0.05996621 0.009844492 0.018523687 -0.0020027927 -0.02089197 -0.0067550098 -0.002935244
-0.002345897 0.006041323 0.009286695 -0.05650153 0.0075011174 0.10456078 0.033194155 0.015061889
0.005343427 0.050789587 0.050424818 -0.0058521912 0.044360723 0.080688916 0.030591013 -0.0014980967
-0.0021241307 0.13199514 -0.074137494 -0.00777653 0.02151893 -0.0015228086 -0.058605865 0.04822017
-0.0019550943 -0.0051455903 0.0072016837 0.005146171 -0.0048744157 -0.010059255 0.002698045 0.041325185
-0.0015819977 0.047982816 -0.013481272 -0.005323813 0.004460887 0.06239187 0.013075635 0.0076551503
-0.005893883 0.0014084982 0.023375362 0.01234299 -0.008753914 -0.29169506 -0.0023102462 -0.0006320513
0.03516152 0.050464053 0.004904913 0.0073861415 -0.018317506 -0.003445661 0.040471755 0.093746655
0.00996095 0.006873787 -0.23750181 0.0065157153 0.014685991 0.0088959485 0.044687048 -0.044017386
0.008057735 -0.0024192869 0.054091122 0.0037620503 -0.035374418 0.0024728058 -0.00015385337 0.0037005723
0.041379895 -0.0027578943 -0.008160532 -0.0074519445 0.026003502 -0.0055707833 0.0026653358 -0.005856693
0.04142021 0.06405777 -0.01538086 0.008084472 0.0031471571 0.01510757 -0.006426804 0.029267043
0.0030980264 0.0064216587 0.0017285296 -0.0041259993 0.047117136 0.1339334 0.0022612147 0.00379333
0.012969151 -0.07942224 0.004810948 -0.00090475526 0.01203282 0.11868981 0.05914721 0.010846886
0.0064684483 0.043944344 0.0025172285 0.0036005774 0.072525986 -0.0067147384 0.06414993 0.008417607
-0.12528998 0.0069436566 -0.01655765 -0.0074019954 0.043462757 0.0015531579 -0.00016099229 -0.0037957088
0.0023122688 -0.0034677398 0.025422862 0.00067475444 0.029547038 -0.006847793 0.0016111895 0.050401814
-0.0007697293 0.08724703 0.012586726 -0.0035654225 0.013999493 0.00031474067 0.00490751 -0.00011660228
0.004215383 0.09200046 -0.00014761259 0.040894046 0.083036125 0.0005962056 -0.0012023424 -0.033559248
0.008229145 0.0010610314 -0.0074656075 -0.0027998365 0.0063656173 0.0005919811 0.006271653 -0.0049729957
-0.03259242 0.024238102 -0.11047329 0.0028512618 0.009640938 -0.002985883 -0.0012522339 0.030533237
-0.030828848 0.0023970725 0.069766134 0.062139113 0.0002848838 0.1273106 0.0036427286 0.06918396
0.0035474568 0.010740606 -0.046554282 -0.06769686 0.005682947 0.03594797 -0.0067953225 0.0075879064
0.062345903 0.057101514 -0.0702768 0.012243911 0.016499367 -0.04064016 0.0020965354 0.04326556
-0.13360304 -0.0025925485 -0.0386598 -0.0052532963 -0.0074020834 0.005165521 0.0039539677 -0.006140713
-0.0029269382 0.0686955 0.0013287893 0.039056413 -0.0023718416 0.0010967674 0.006130741 0.003467615
-0.0025636354 0.0015139978 0.049836572 0.02136962 0.008169092 -0.0017048499 0.023289515 -0.0005214199
0.0023765706 -0.039995752 0.008104599 0.05426998 -0.02276695 -0.0032006928 0.042748105 0.04752727
