critic-target_parameters.pt (torch_old, 544211 bytes, 5 tensors)

fc1.weight f4 [400, 37]
000000 1d 53 74 3d a2 bf fc bd 87 68 4b 3e 3a 04 ea 3c
       0.059649576 -0.123412386 0.19864093 0.028566469
000010 da 98 0b 3d da 10 ec 3c 0b 80 2a 3e 74 1b 8f bd
       0.034081317 0.02881663 0.16650407 -0.06987658
000020 27 99 a5 bd 2c c4 67 bc 52 0d d6 bc 85 bf 77 bd
       -0.08085852 -0.014145892 -0.026129398 -0.06048538
000030 2f 47 e9 3c be 01 5a bd fe 50 24 3b 00 f1 70 3c
       0.028476326 -0.053224318 0.002507269 0.014705896
000040 d7 14 52 3e 62 d7 0d be 55 96 3c bd 6a 43 91 3d
       0.20515762 -0.13851693 -0.046041805 0.07092936
000050 20 0b a6 3d 7a 24 c2 3d 00 22 16 bc 9b dd 67 bb
       0.08107591 0.094796136 -0.00916338 -0.003537989
000060 ce 85 5b 3c 99 42 12 3b 74 04 0b be 70 ed 61 be
       0.013398601 0.0022317527 -0.13575917 -0.22063231
000070 17 c5 54 be 94 b9 2d bc 4e 2b 3a 3e d7 d6 e7 bc
       -0.20778309 -0.010603327 0.18180582 -0.028300686
000080 98 81 00 3f 97 7a 8f 3b ed bf 1f 3c 7c c5 89 3d
       0.50197744 0.0043786275 0.0097503485 0.0672712
000090 8a 72 c6 3a 24 49 d1 bd 44 6a d2 3e 4d 87 77 3e
       0.0015140336 -0.102190286 0.410967 0.24172707
0000a0 e7 9c 96 bd 1a cd c4 3e c4 37 6e be a1 57 b7 3d
       -0.073541455 0.3843773 -0.2326346 0.08952261
0000b0 0a 04 be bd 46 69 ff 3c 43 ed 02 3c ac df 33 bd
       -0.09278114 0.031178128 0.007991138 -0.043914482
0000c0 66 d6 a7 3d 91 e8 94 3c 56 e7 44 3d 39 d7 04 3d
       0.0819519 0.018177303 0.04807218 0.032431815
0000d0 24 42 97 bd 6b c4 8a 3e 84 bb 46 3e fd 0f 73 3e
       -0.07385662 0.2710298 0.19407469 0.23736568
0000e0 85 89 3e 3e 8a 62 29 3d bb 52 39 bd 93 ed cd 3d
       0.18607147 0.04135374 -0.045244914 0.10055079
0000f0 2a 52 98 3d 64 6e c0 bd 93 40 0d bd 5d 73 a5 bd
       0.074375466 -0.09396055 -0.03448541 -0.080786444
000100 78 27 f1 3d 58 4e 89 3d f6 5d 84 3c 44 30 15 be
       0.11775106 0.06704396 0.016158085 -0.14569193
000110 42 5a 85 3c 6f 95 0d bd b7 9a 46 bc 2d f5 55 bc
       0.01627839 -0.03456634 -0.012121848 -0.013058943
000120 7f 8c 46 bc b0 8a ac be 80 e9 d4 3a 08 48 9a 3e
       -0.012118458 -0.3369956 0.0016243905 0.3013308
000130 a9 8a 31 be 29 7a 20 bf 96 bb ef be 71 ba 55 3e
       -0.17338051 -0.626864 -0.46822804 0.20871903
000140 4b 94 36 bd cb da 6d 3d 20 9b ba 3c c9 0f d4 bb
       -0.044575017 0.058069985 0.022779047 -0.0064716083
000150 52 13 a3 3d 1c 7e 4c bd 70 ef 7d bd ac d5 dd 3d
       0.079626694 -0.049924955 -0.061995924 0.1083177
000160 98 27 e7 3d 1f a3 20 bd e0 5b 61 3e 70 1a fa bd
       0.11286849 -0.039218064 0.22007704 -0.12212074
000170 bb fd d8 3e 46 71 87 be 6b f6 ef 3c 41 92 7f bd
       0.4238108 -0.26453608 0.029292306 -0.062395338
000180 ce fc 55 3d 49 97 27 3e ee 34 16 3d 61 4c 8c bb
       0.052243046 0.16366304 0.03667157 -0.004281566
000190 09 ee 88 3b e2 13 aa 3e 95 7c 80 bd d2 c7 d1 3c
       0.0041787666 0.33218294 -0.06273762 0.025607977
0001a0 78 c4 b9 be 48 00 2c bd 88 68 4a 3e d0 22 ae 3d
       -0.36282706 -0.041992456 0.19766438 0.08502734
0001b0 27 7c c7 3d a7 07 8d 3b d4 70 1b be 68 40 ee bb
       0.09740477 0.0043038907 -0.1517976 -0.0072708614
0001c0 db aa 71 3e eb fd ad bd 6e ab 8b 3d ec 25 07 bf
       0.23600332 -0.08495697 0.06819807 -0.5279224
0001d0 ee a9 a5 be fc cf 6b 3d 88 37 a0 bd 4a aa 2b bd
       -0.3235621 0.057571396 -0.07823092 -0.041910447
0001e0 a5 b0 e7 bd d3 eb 73 3d 92 d5 9f 3d c7 f5 e8 bd
       -0.11312989 0.05955107 0.07804407 -0.11375003
0001f0 da af 4a 3d cf de 0b 3c 1c f9 04 be 68 9c ed 3e
       0.04948411 0.008537008 -0.12985653 0.4640839
000200 d7 4d d6 3e 3d 32 98 3e 96 a1 ab 3d f5 fd 9b bc
       0.41856262 0.2972583 0.083804294 -0.019041995
000210 76 a5 30 3d 16 a9 da bd f1 37 4d 3d f7 37 45 3d
       0.043126546 -0.10676782 0.050102178 0.048149075
000220 ee 0d cf 3c ba 1d 03 3e b0 ff cd 3e 99 2e 30 bc
       0.025275197 0.12804309 0.40234137 -0.010753297
000230 40 b0 1d bc f1 1e d3 be 0d c7 25 bd 97 1e ee be
       -0.009624541 -0.41234544 -0.040473033 -0.46507713
000240 26 f2 cc 3d 96 5a 0b b9 e4 95 c0 3c 06 b0 5f 3c
       0.10007124 -0.00013289819 0.023508973 0.013652807
000250 34 2d d3 bc a7 ea 5a 3c 2b 08 4d bd 4f 5d 1f 3e
       -0.02577839 0.01336161 -0.050056618 0.15562938
000260 55 7c 0a 3c be 30 bf 3b c2 11 69 be 5e 08 43 bb
       0.008452495 0.005834668 -0.2276068 -0.0029759626
000270 5f f6 95 bc 4c ce 32 3d 03 44 53 bd ed 3d f0 bb
       -0.018305955 0.04365377 -0.051578533 -0.007331601
000280 84 0e 1f bb 79 ae 48 be 46 38 15 3e 00 c2 d6 bd
       -0.0024270127 -0.19597806 0.14572248 -0.10486221
000290 74 1b 5a 3e e1 51 dc bd a3 23 a8 be 58 98 0e bf
       0.21299535 -0.10757805 -0.3283969 -0.5570121
0002a0 2a ac e7 3c 8c f8 37 bd b1 36 08 3e 28 0e 89 3c
       0.028280336 -0.044914767 0.13302113 0.016730383
0002b0 b1 c1 89 3d 22 f1 2a bd 4c b7 6d 3e 65 46 98 3e
       0.06726397 -0.04173387 0.23214453 0.29741207
0002c0 57 de dc 3d 80 4a d9 bb 6b e9 a1 be e0 91 69 bb
       0.107845955 -0.0066311955 -0.31623396 -0.0035639927
0002d0 62 1f f1 be 7a 11 17 3d b9 25 1f 3c 3a b4 45 bb
       -0.47094256 0.0368819 0.009713584 -0.0030167238
0002e0 ea 36 ca 3a 85 34 2d 3e 78 3d e7 3d 56 0b 8f be
       0.0015427743 0.16914566 0.11291021 -0.27938336
0002f0 75 9b 5e 3e 9f 5b 53 be f1 78 94 be bc 88 be bd
       0.2173899 -0.2064042 -0.2899852 -0.09303424
000300 c4 8f a5 bd c2 99 15 be 34 a6 9a 3e f1 af c3 bd
       -0.08084062 -0.14609435 0.30204928 -0.095550425
000310 e7 c9 14 bd fd 35 1d 3d 18 e4 8b bc 02 c0 ac 3b
       -0.03632536 0.038381565 -0.017076537 0.0052719126
000320 c9 a1 a3 3d a9 08 02 3d 5a 13 c7 3e c0 d6 00 3d
       0.079898424 0.03174654 0.38881952 0.0314548
000330 d9 1d e1 bc 4d a0 31 3d 0d f7 a5 3c 4f 33 37 be
       -0.027480053 0.043365765 0.020259405 -0.17890666
000340 b0 78 92 bd 58 97 f0 bd db 6d 1a 3e de 2c f9 bd
       -0.071519256 -0.117476165 0.15080969 -0.12166761
000350 0f 51 d2 3e a0 a6 26 3d f6 ee 95 bc 92 b1 f2 be
       0.41077468 0.04068625 -0.018302422 -0.474011
000360 a0 c1 15 bb 05 b9 21 3e 7b ec 01 be 8c fa b8 3c
       -0.0022851005 0.15793236 -0.12687866 0.022580408
000370 51 20 61 3c c6 f0 17 bd 41 bb 62 be b1 a9 f6 3d
       0.013740615 -0.037094854 -0.22141744 0.12044085
000380 d6 66 3a 3e fc f3 14 bf c4 18 ed 3e e6 5b 16 3b
       0.18203291 -0.5818479 0.46307957 0.002294296
000390 6b e5 cb be c1 c4 fc 3d af 8b 4b 3c 0d 2a c5 3d
       -0.3982347 0.12342215 0.01242344 0.09627161
0003a0 34 22 41 3a e7 22 c3 bc ff 47 40 bd 15 47 02 bc
       0.00073674624 -0.023820354 -0.04694366 -0.007951518
0003b0 79 fe 4d bd 22 9f b1 bd 8a 1f 86 be f7 7c 04 bd
       -0.050291512 -0.0867293 -0.26195937 -0.03234574
0003c0 77 60 0e bf 9e e3 27 3d 30 14 b3 bb c0 69 24 bd
       -0.55615944 0.040988557 -0.005465053 -0.040139914
0003d0 2d 6e a8 3b dc d5 52 bd 9a e0 87 bc e8 48 a4 3d
       0.005140087 -0.051473483 -0.01658659 0.08021718
0003e0 c6 d5 87 bd 97 96 d7 3e a4 4b 61 bd 56 39 f8 3c
       -0.06632571 0.42107078 -0.055003777 0.030300777
0003f0 4a 15 c2 be b4 9d ab 3b 4e 05 84 be c5 5c 4a bd
       -0.37906867 0.0052373055 -0.25785297 -0.04940488

fc1.bias f4 [400]
000000 df ca 85 3e 48 04 3f be 24 41 b0 be a7 6d c2 be
       0.2613134 -0.18653977 -0.34424698 -0.37974283
000010 09 6d a9 be 67 61 f3 be be 4b de be 1b c6 ba be
       -0.33091 -0.4753525 -0.43417162 -0.36479267
000020 64 41 7c be 97 9f 90 be 2a 93 f0 bd 58 8a 5c be
       -0.2463432 -0.28246757 -0.11746819 -0.21537149
000030 af af a8 be 41 14 2e be 32 6d 50 be fc a6 a9 be
       -0.32946536 -0.16999914 -0.20354155 -0.3313521
000040 4f bc ce 3c 56 6c 77 be b6 b7 30 be df 3b fd be
       0.025236277 -0.2416242 -0.1725758 -0.4945974
000050 60 2a a6 3d bb 7a 5b be 23 23 11 be cc 23 5e be
       0.08113551 -0.21433537 -0.1417356 -0.21693343
000060 c4 46 0f bf c7 45 a8 be c4 ef 4e 3e 06 d7 11 be
       -0.55967355 -0.32865736 0.20208651 -0.14242181
000070 0d 9c 06 bf 77 1a 52 be 18 dd 39 be c3 86 e0 bd
       -0.52581865 -0.20517908 -0.18150747 -0.10963204
000080 2b 2b 46 be 7d e7 38 be f5 c8 66 3e 30 3d d8 be
       -0.19352405 -0.18057056 0.22537597 -0.42234182
000090 45 47 f7 be 89 81 88 be 65 f5 92 be cf 61 be bd
       -0.48296562 -0.26661327 -0.28702846 -0.09295999
0000a0 0f 99 15 be 20 91 9a 3e de 10 12 bd 7d 2b 62 be
       -0.14609168 0.30188847 -0.035660617 -0.22086902
0000b0 0c 28 de be c1 0f 9d be 4c 4e 0d be 7b be 69 be
       -0.43389928 -0.30676082 -0.13799399 -0.22826569
0000c0 0a 2b bc be 52 8c ca be f9 dd bd be 0f 1f e5 bd
       -0.36751586 -0.3956018 -0.37083414 -0.111875646
0000d0 a6 8d b6 be b9 cb b7 be 45 4a 07 3e a4 cb 76 be
       -0.35654944 -0.35897616 0.13211925 -0.2410112
0000e0 24 58 ca be 2c 1c 8c be c5 d3 6c be 3d 3d a7 be
       -0.3952037 -0.27365243 -0.23127659 -0.3266391
0000f0 ae 55 c0 bd 1e 7a 93 be fb 3a 27 be 58 9a a3 be
       -0.09391342 -0.28804106 -0.16331093 -0.31953692
000100 fd 60 71 be 35 17 a4 be b5 2d b6 be fc d8 9f be
       -0.23572154 -0.32048956 -0.35581747 -0.31220233
000110 ed 82 13 be 5a 81 cf be 8f 02 3f be 27 ac 98 be
       -0.14405413 -0.40528375 -0.1865332 -0.29818842
000120 78 8c be 3d d8 c2 98 3d 09 a1 5f be cb 80 89 be
       0.09304136 0.074590385 -0.21838774 -0.26856074
000130 c9 6c 97 be be 2a 36 be 24 06 5f be e5 5d e6 be
       -0.29575184 -0.17789742 -0.21779686 -0.4499351
000140 de c3 aa be f7 04 64 be 72 6b b6 bd a7 41 c6 be
       -0.3335256 -0.22267519 -0.08907212 -0.38721964
000150 a8 59 04 be 19 01 38 be ed 4a 11 bf 51 4e af be
       -0.12924826 -0.17969169 -0.5675495 -0.34239438
000160 91 03 16 be cb b6 1c 3e 13 97 c1 be fc 4e b3 be
       -0.14649798 0.15304105 -0.37810573 -0.35021198
000170 e5 71 51 bd 2a 59 77 be ce 0f 8f 3e 36 f0 3f 3e
       -0.05113401 -0.24155107 0.27941746 0.18743977
000180 60 1d 30 be 0e 70 75 be bb 8b ae bd 13 98 c2 be
       -0.17198706 -0.23968527 -0.08522745 -0.38006648
000190 03 80 a3 be 43 e2 ef bd 08 72 8b be b5 35 90 be
       -0.31933603 -0.11713078 -0.27235436 -0.28165975
0001a0 54 4c 19 3d fe 37 24 be c9 04 ee bd d2 e8 05 bf
       0.037426308 -0.16036984 -0.116220064 -0.5230838
0001b0 4f d8 1f be 6d c7 ac be 72 4f f5 be 24 c0 22 be
       -0.15609859 -0.337459 -0.47912174 -0.15893608
0001c0 6b 61 bc 3d e7 59 99 be ca e0 f0 be 44 47 07 be
       0.091982685 -0.29951403 -0.470465 -0.1321078
0001d0 8d 97 e8 be 66 59 b7 be 6e 02 b4 be 35 3b f3 be
       -0.45428124 -0.35810393 -0.35158104 -0.4750611
0001e0 75 58 e7 bd 72 28 ad be 02 5c 40 be 3b b9 77 bd
       -0.11296169 -0.3381992 -0.18785098 -0.060479384
0001f0 d8 b7 59 be 17 a7 b2 be 77 ff 3d 3e 8f 9b f6 bd
       -0.21261537 -0.34893104 0.18554483 -0.12041389
000200 37 52 fe bc 9e d4 01 bf 84 70 0d be 79 b0 b2 be
       -0.031045062 -0.50715053 -0.13812453 -0.34900263
000210 3e 76 9b be 0d 4e 6a be ed fd 1e be 36 83 97 bd
       -0.3036365 -0.22881337 -0.15526552 -0.073980734
000220 4b 75 92 be 0d 7b 9c be b5 ea e0 be 73 89 b3 be
       -0.28605112 -0.3056263 -0.43929067 -0.35065803
000230 3d e5 87 be aa 00 97 be 08 74 d7 be a1 eb 31 be
       -0.26542082 -0.29492694 -0.42080712 -0.17375042
000240 3c 19 71 be 1f 54 ba be cc b0 8b bd f6 a2 34 bd
       -0.23544782 -0.36392304 -0.06820831 -0.044100724
000250 9e 4f c1 be 93 c1 f7 3d ef 91 a9 be 7d f6 b7 be
       -0.37756056 0.12097468 -0.3311915 -0.35930243
000260 f7 1b 93 be eb 59 9b be dc be 8e be 04 c9 47 3e
       -0.28732273 -0.3034204 -0.2787999 0.19510275
000270 4e 3b c9 be 83 10 9c be 4a d6 91 be a8 9f 7f be
       -0.39303058 -0.30481347 -0.28483802 -0.24963248
000280 47 08 a5 3e 70 d7 20 ba db fd c8 be ed ff ef bd
       0.32232878 -0.00061356183 -0.39256176 -0.11718736
000290 08 34 a0 be b9 00 ae be 33 05 8d 3d a3 12 fc bd
       -0.31289697 -0.33984926 0.06885757 -0.12308242
0002a0 0c 98 48 be e5 6b 2a bc 65 d6 bd be 7c 21 09 bf
       -0.19589251 -0.010401701 -0.37077633 -0.5356672
0002b0 f0 f8 97 be 37 3d 8e bd 04 f7 ba bd 55 f7 8d be
       -0.29682112 -0.069452696 -0.09129146 -0.27727762
0002c0 41 83 bc be e7 36 04 bf 51 eb 0c 3e 00 f6 9f be
       -0.3681889 -0.51646274 0.13761641 -0.3124237
0002d0 64 9b 40 be 5f 32 1a bf f1 b1 da be 4f cb f3 be
       -0.18809277 -0.6023311 -0.42713884 -0.4761605
0002e0 95 3a a4 bd 00 98 a7 be 98 87 ba be ca d5 72 be
       -0.08018986 -0.32733154 -0.36431575 -0.23714367
0002f0 33 07 51 be 71 11 a9 be 4c 96 18 be 02 d1 47 be
       -0.20412903 -0.3302112 -0.14901084 -0.19513324
000300 69 d9 f5 be 09 6d f2 bd 1b 0e 37 be a3 8c 22 be
       -0.48017433 -0.11837203 -0.17876475 -0.15873961
000310 da 0e b4 be 04 81 98 be 2c d7 82 be 0a 96 b6 be
       -0.3516758 -0.2978593 -0.25554788 -0.35661346
000320 16 91 aa be e8 59 13 be 71 14 b5 be fc 98 b9 be
       -0.33313817 -0.14389765 -0.35367158 -0.3624953
000330 30 10 97 bd dc c8 bc be a2 09 68 be 90 1d bb be
       -0.073761344 -0.36871994 -0.22659925 -0.36545992
000340 77 06 6f be 76 1c 91 bd fa 19 2a 3d bc 6e b6 be
       -0.2334231 -0.070855066 0.04152868 -0.3563136
000350 08 46 9e be 60 ab 8b be b3 4a 88 bd a4 58 9f be
       -0.30912805 -0.27279186 -0.06654873 -0.31122315
000360 46 cd e5 3b 57 30 f1 be ee 46 95 be f6 87 1b be
       0.007012996 -0.47107193 -0.29155678 -0.15188584
000370 13 04 53 be 4c 63 87 be 44 ff c0 bd 69 1f d8 be
       -0.20607023 -0.26442945 -0.09423688 -0.42211464
000380 52 d4 28 be 6e 2f 5c 3e 1e 18 4f be 76 98 9f bd
       -0.16487244 0.21502468 -0.20224044 -0.077927515
000390 21 cc be be 4e 3e 97 be 4a 51 00 3e a0 cc 40 be
       -0.37265113 -0.29539722 0.1253101 -0.18828058
0003a0 82 6a 88 be f7 66 f4 be 08 76 72 be fe cf 74 be
       -0.2664376 -0.47734806 -0.23677838 -0.23907468
0003b0 e8 83 b9 bd a8 8a a3 be f3 c0 b2 be a2 d0 56 be
       -0.09058362 -0.31941724 -0.34912834 -0.20978025
0003c0 9d 7d 76 be ad 59 a2 3e e2 ef a6 be d2 50 d5 be
       -0.24071355 0.31709042 -0.3260489 -0.41663224
0003d0 16 ea b6 be fd 6b 7c be 03 37 3c 3d 2a c9 4b be
       -0.35725468 -0.2465057 0.0459509 -0.19900957
0003e0 61 9b 6b be 7e 1c 50 be de 84 57 be 05 39 e6 be
       -0.23008491 -0.20323369 -0.21046779 -0.44965377
0003f0 37 36 81 be 4d 4d 53 be bd 51 00 be fb 12 ee bd
       -0.25236675 -0.20634957 -0.1253118 -0.11624714

fc2.weight f4 [300, 400]
000000 77 af 4c bd 71 ee 6a bd 1d 93 af bc 8a 11 24 bc
       -0.049972024 -0.0573563 -0.021432454 -0.010013947
000010 00 69 28 bd 2e c8 28 bb 52 d9 60 bd 32 68 ea bc
       -0.04111576 -0.0025754082 -0.054894753 -0.028614137
000020 ca 2a 25 bc 7d 4a 6c 3d 4a 32 9d 3c 47 7a 1f bd
       -0.0100810025 0.057688225 0.019189019 -0.038934972
000030 e7 ce 06 3c e0 04 67 3b 3c 24 29 3c 34 4e 58 3c
       0.00822804 0.0035250708 0.01032358 0.013202239
000040 e7 b0 d8 3b 73 8a e9 3c 1a 07 4c 3b fc 36 10 bc
       0.0066128853 0.0285084 0.0031132163 -0.008802172
000050 27 1a 55 3c 2f 6a 8d bd d6 5d a4 3a dd d4 16 bd
       0.0130067235 -0.069050185 0.0012540172 -0.036824096
000060 64 1c 2c 3c 52 2d 86 bd 68 25 90 bc 2e b7 62 3c
       0.010504816 -0.06551613 -0.017595962 0.013837619
000070 1d e1 22 bd d9 e7 65 3c 58 93 25 3d 93 ff 16 bd
       -0.039765466 0.014032328 0.04042372 -0.03686483
000080 31 8b 6d bd 2f cb 34 bd 6d 5c af bc 86 fb 17 3d
       -0.05799407 -0.044139083 -0.021406377 0.037105106
000090 9e 7a 24 bd 2b c0 15 bd b2 5b 37 3d 61 34 b6 3c
       -0.040156 -0.03656022 0.04476518 0.022241773
0000a0 8c 41 1b bd 7c 08 2b bd 26 5c 01 bc e4 69 6a bd
       -0.037904307 -0.04175614 -0.007895505 -0.05722989
0000b0 e7 09 46 bd 15 fd cb bc e0 c7 86 bc 7a cd 5f bc
       -0.048349287 -0.024900952 -0.01645273 -0.013659829
0000c0 14 82 13 3d 1f 83 c6 3c 18 9a f4 bc 87 7a ad bb
       0.036012724 0.024232445 -0.029858634 -0.0052941474
0000d0 ac 5f 23 3d 8c 4b f7 3c d0 0b 0a bd c4 fb 26 bd
       0.03988616 0.03018739 -0.03370267 -0.040767446
0000e0 94 69 2f bc 5c e0 1f bd 70 aa 2d 3c 61 b8 20 bd
       -0.010706324 -0.039032325 0.0105997175 -0.039238337
0000f0 4e 79 4b 3c 0f bc f6 bc 8c 1d 14 3d 03 2b 42 3c
       0.012419058 -0.03011897 0.03616099 0.011851075
000100 f0 dd da bc b7 e8 dd bc 4e 6d 74 bc 8b eb 6d 3c
       -0.026717156 -0.027088506 -0.014918638 0.01452149
000110 65 96 83 bc 5f 32 22 3d c5 22 93 bc eb b8 9e bd
       -0.016062925 0.03959882 -0.017960915 -0.07750114
000120 0c a0 d1 3c 46 d6 82 bd 1a 4b b0 bb 89 b5 04 bc
       0.025589012 -0.06388526 -0.0053800466 -0.008099922
000130 e3 f8 da 3c 91 6b 12 bd fa 0a 0f 3d 14 a8 3c bd
       0.026730007 -0.035747115 0.034922577 -0.04605873
000140 74 7a 0e 3d 09 a2 ce bb 70 86 9a 3c bb ab 48 bc
       0.03478475 -0.006305937 0.018862933 -0.012247975
000150 e6 1f 47 bc 2d c3 3a 3c f7 34 d6 3a 2a b5 0f bd
       -0.012153601 0.011399073 0.0016342689 -0.03508488
000160 39 08 6b bd 27 87 47 bd 88 9b e7 bc ca 96 2c bc
       -0.05738089 -0.048712876 -0.028272405 -0.010533998
000170 8d ee d2 3c 0b 8a 11 3d 23 ef d9 bc 6c 98 82 bd
       0.025748516 0.03553204 -0.026603287 -0.063767284
000180 35 e8 4f bd c5 2b ab bb 05 a3 ad bd f3 16 00 3d
       -0.05075856 -0.0052237236 -0.08478359 0.031271886
000190 9c 28 48 bd f5 13 80 bd c2 92 c5 3c fb f0 f0 3c
       -0.048866853 -0.062538065 0.024117831 0.029411783
0001a0 66 9d bc bc be 4b 57 3d 64 7f 42 bd 60 d6 5b bc
       -0.023024272 0.052562468 -0.04748477 -0.01341781
0001b0 11 0f 17 bb d1 e8 a0 bd 96 9c 7f bd b3 4f df b8
       -0.0023049752 -0.07856906 -0.06240519 -0.00010648314
0001c0 9d 85 1e 3d 07 1c 5d bc 14 1d 5c bd 88 05 da bc
       0.038701642 -0.013495452 -0.05373867 -0.026613966
0001d0 dd 03 71 3d f0 ce c3 bc c8 ad 18 b9 02 42 21 bd
       0.058841575 -0.023902386 -0.00014560588 -0.03936959
0001e0 2e cf eb 3b e3 f9 c5 bc 4e 7e 86 bc 72 cf 77 39
       0.0071963286 -0.024167007 -0.016417649 0.00023633035
0001f0 da 96 26 bd 12 ca ee 3c ea 30 4b bd fe fb 69 bd
       -0.040671207 0.029149089 -0.049607195 -0.057125084
000200 e0 6d ef bc c9 00 93 bc ce 39 d4 bc e6 32 c8 bb
       -0.029227197 -0.01794471 -0.02590647 -0.006109583
000210 0a ed b4 ba 52 d8 35 bd 85 cf a3 3a 5f db 80 bc
       -0.0013803553 -0.044395752 0.0012497759 -0.015729604
000220 37 66 ad bc 6d 14 15 bc 83 c4 44 bd 21 8c 51 bd
       -0.021166904 -0.009099108 -0.04803897 -0.051159028
000230 74 72 53 3c db 03 32 bb 96 bf db 3c d0 9c 1c bd
       0.012905706 -0.0027162943 0.026824754 -0.038235486
000240 f7 bc 43 3d 93 8f 7e bc 0c 3f 91 bc 44 de d3 3c
       0.047787633 -0.01553716 -0.017730258 0.02586282
000250 13 3f 8e bc 44 87 6f bd e6 77 bc bc 7c 65 8e 3c
       -0.01736406 -0.05847861 -0.02300639 0.017382376
000260 b0 3c df bb 3f 56 9b 3c 8c b2 aa bb 00 75 7f 3c
       -0.0068126544 0.018962024 -0.0052092727 0.01559186
000270 d5 00 a8 bc 20 ea ac ba 48 66 66 3c b4 62 53 bc
       -0.02050821 -0.0013192333 0.014062472 -0.012901951
000280 72 6a 8d bd d1 16 10 3c 98 87 e8 3b 6a 97 62 bd
       -0.069050685 0.008794502 0.007096242 -0.05532018
000290 1a f7 4a bb 89 0f 36 ba 2c 04 86 bc df 25 c8 3c
       -0.0030970038 -0.0006945064 -0.016359411 0.02443212
0002a0 1b 91 0e bd d2 59 89 bb ba d9 05 bd 34 eb 35 bd
       -0.034806352 -0.0041916156 -0.032678343 -0.04441376
0002b0 fc 8d 34 bc 81 3a dc 3b ba ea 71 bd 45 7b 0a 3d
       -0.01102018 0.0067208414 -0.059061743 0.033808965
0002c0 da e4 32 3d 68 0c d0 bc 3e 7c 01 bd eb 93 20 bd
       0.04367528 -0.02539654 -0.031612627 -0.039203566
0002d0 4a 56 8a 3b f5 8c 19 bd d6 f4 1c bd 46 a8 35 3d
       0.0042217122 -0.037487943 -0.03831943 0.04434993
0002e0 fa fb 37 3c d2 0f 4d bd db 3d ec 3a 27 b9 3a 3d
       0.0112295095 -0.050063916 0.0018023805 0.04558673
0002f0 be 75 dd bc ba 62 1d 3d ce 4c c8 3c 4b 64 5d bb
       -0.027033683 0.03842423 0.024450686 -0.0033781703
000300 2f d9 ed 3b d8 16 b4 bc af 9a 07 bd b2 07 12 bc
       0.0072585563 -0.021983549 -0.033106502 -0.0089129675
000310 76 8f 70 bc c4 75 9a 3c fe 2f 8c bc af 3d 80 3c
       -0.014682641 0.018854983 -0.017112728 0.015654413
000320 ea 8b 19 3d 0a 18 65 bd b2 04 f9 bc ea 5e a1 bd
       0.037486948 -0.05593113 -0.030397747 -0.078794315
000330 fa df c4 3c 87 3d d9 3b 7d 73 14 bb 44 81 d6 3c
       0.024032582 0.006629649 -0.0022651844 0.026184686
000340 59 66 93 bc 06 11 0a bd 06 23 e0 3c 10 30 05 bd
       -0.01799314 -0.03370764 0.02736045 -0.03251654
000350 c5 1c a1 bd 00 ac 07 bc 37 a7 37 ba 49 fb 62 bc
       -0.078668155 -0.008280754 -0.0007005813 -0.013853856
000360 99 f0 23 bd 07 06 76 bb c4 32 15 bd 85 70 5e 3a
       -0.040024374 -0.0037540214 -0.036425367 0.00084853946
000370 1a b0 9a 3a 81 ec 42 ba b9 57 0a 3d 57 cd 46 3c
       0.001180175 -0.00074357545 0.033775065 0.012133918
000380 63 84 00 3d c6 2f 7b bd 0f a2 65 bc 96 65 b7 3c
       0.031376254 -0.061324857 -0.014015689 0.022387307
000390 8d ff 8b bd d7 70 82 bc 46 9e 26 bc 2c e2 20 3d
       -0.06835852 -0.015922947 -0.010169571 0.039278194
0003a0 4e da 8c bd b4 c9 ec bb 13 8a 8e bb fc 03 82 bd
       -0.06877576 -0.0072261933 -0.004349956 -0.06348416
0003b0 44 b0 57 bd 5c f4 3e bd cd eb c7 3c 03 72 a5 3c
       -0.052658334 -0.046619758 0.02440443 0.020195967
0003c0 2f 67 34 bc 2f cf ab bc a9 f5 3e bd 54 2d 12 bb
       -0.011010929 -0.020972816 -0.046621 -0.002230485
0003d0 1e 59 1b 3d 5e eb 8b 3d 8c ea 5c bd a3 fd 94 3c
       0.037926786 0.06832002 -0.05393462 0.01818735
0003e0 96 eb 29 bd e7 f3 6b bd 94 7d 67 3c 26 53 25 3d
       -0.041484438 -0.05760565 0.014129061 0.0403625
0003f0 68 a3 14 bd 35 43 9e 3c e2 80 62 3d f5 3a fc 3c
       -0.03628865 0.019319156 0.055298693 0.030789832

fc2.bias f4 [300]
000000 3c a3 25 bd 0c 79 b2 bc 4d 8d 11 bd e1 82 de 3c
       -0.040438876 -0.021786235 -0.035535146 0.027162017
000010 9f b6 40 bd 24 56 19 bc c5 e0 aa bb 15 72 11 3c
       -0.04704916 -0.009358916 -0.005214783 0.008877297
000020 d9 ba 7a bd 6a 56 3e bd d6 9f e6 bd 58 bc 5a bd
       -0.061213348 -0.04646913 -0.11260955 -0.053402275
000030 95 ff a2 bd 5e bb 80 3e b5 32 07 3f d5 56 0d 3e
       -0.07958905 0.2514295 0.5281175 0.13802655
000040 4d f2 95 bd 30 63 b9 3e 65 e2 64 bd 41 ae d0 bc
       -0.07321606 0.36208487 -0.05587997 -0.025473716
000050 1c 83 21 bd e0 a6 d8 3b e9 4d 42 bd 82 29 18 3e
       -0.039431676 0.00661169 -0.047437582 0.14859584
000060 92 0b 3f 3f 9b d2 74 bc 5e 08 dd bc 30 17 1f bc
       0.7462703 -0.01494279 -0.026981529 -0.009710118
000070 c8 bf 88 bc dc 8e d1 3c 7e 21 77 bd dd 3a 12 3b
       -0.01669301 0.025580816 -0.060334675 0.0022312917
000080 46 6f ff bc df a0 ea bd 91 b5 b4 3c 39 5c 4e 3e
       -0.031180989 -0.11456465 0.022059234 0.20152368
000090 be 83 70 bd dc bf 27 be 4a 5e 85 bc 3f 71 57 bd
       -0.05871939 -0.16381782 -0.016280312 -0.052598234
0000a0 18 0d 99 bc f0 a6 92 3c 33 b4 ae bd 11 6f a2 be
       -0.018683001 0.017901868 -0.08530464 -0.31725362
0000b0 c7 cb 86 3c 5e 6a 2e 3d 8b da af 3e b4 12 58 bd
       0.01645459 0.04258191 0.34346423 -0.05275221
0000c0 42 8e 26 bd 6d 48 00 3d 90 a0 90 3e 51 8f 0b bd
       -0.04066301 0.03131907 0.282475 -0.034072224
0000d0 90 89 15 3e 77 da c9 b9 bd 8b 77 3c 40 3c 57 bd
       0.14603257 -0.00038500477 0.015109 -0.052547693
0000e0 97 78 38 bc 2c 4d 59 3e 26 7a 89 be 07 67 90 3c
       -0.01125922 0.21220845 -0.26851004 0.017627252
0000f0 0c 0d 2a 3c 94 c5 9b bd d4 a5 26 bd 14 d4 80 bc
       0.010379087 -0.076060444 -0.04068549 -0.015726127
000100 86 0c 9e bc 12 cf 76 ba dd 11 2a 3c 21 ad 65 bd
       -0.019293081 -0.0009415011 0.0103802355 -0.05607331
000110 50 b4 6f 3b c9 a6 61 3c b4 67 b4 bc 2a ac 7e 3e
       0.003657598 0.013772675 -0.022022106 0.24870363
000120 84 c3 7f 3c a0 1d 19 3d ae 87 13 bd 09 d1 db 3c
       0.015610579 0.03738177 -0.036018066 0.026833074
000130 69 31 1a bc b1 6f 76 3e ca 9a 63 bb ea 05 db bc
       -0.009411194 0.24066044 -0.0034729713 -0.026736218
000140 22 1b 4e 3c ba 44 c9 bc 6a 93 81 3e 38 15 d4 bb
       0.012579711 -0.024568904 0.2530778 -0.006472256
000150 96 42 1b 39 a9 8f dc bc 06 02 b3 bc 1d e8 65 bd
       0.00014806757 -0.026923971 -0.02185155 -0.056129564
000160 f3 2f 53 3e 25 ab 93 3e 26 8a 20 3d c9 82 34 3d
       0.2062376 0.2884151 0.03919425 0.04407004
000170 f7 c6 8d be df d5 83 bc e2 09 91 3e 08 07 14 bd
       -0.2769086 -0.016093193 0.28327852 -0.036139518
000180 7f a3 8b bd 22 b3 fd bc 5c 6b b3 bd 4d d3 63 bd
       -0.06818294 -0.030969206 -0.087607116 -0.055621434
000190 72 80 60 3e 33 a6 9b bc 24 6d 9d 3e 36 7e 29 bd
       0.21923998 -0.019000148 0.3074733 -0.04138013
0001a0 77 32 0c bd 01 71 55 bd a6 ec 07 3f 9f 07 73 bd
       -0.034227815 -0.052109722 0.5309547 -0.05933344
0001b0 91 75 3b bd 0b b6 5f bd 2c 6f 56 bc c0 a7 29 bc
       -0.045766417 -0.05461697 -0.013088029 -0.010354936
0001c0 52 5a 58 3e 66 3f 88 bd 27 48 78 bc 06 39 ba 3a
       0.21128204 -0.06652717 -0.015153921 0.0014207668
0001d0 4a b5 dc 3e c1 e0 92 bd e4 d0 d0 bc 05 8b 3e bd
       0.43107063 -0.07171775 -0.025490232 -0.046519298
0001e0 28 e9 3e 3d 3a 8d 0b 3d d8 d1 32 bc ea 72 40 bc
       0.046609074 0.03407023 -0.010914288 -0.011746148
0001f0 4c 8e bc bc a4 03 7a 3b 2c ae 98 bb cf 21 cc 3e
       -0.023017071 0.0038149143 -0.004659435 0.39869544
000200 9f a0 4c bc 6a ba 01 3b f6 69 80 bd bd c1 7b bd
       -0.012489467 0.001979495 -0.062702104 -0.06146406
000210 d1 71 80 3e 84 84 8f 3e c2 b9 72 bd 02 d7 5d bc
       0.25086835 0.2803079 -0.059259184 -0.013540031
000220 48 eb 94 bd 3a 8c 14 bc 28 56 17 3c 33 d1 8b bd
       -0.07271439 -0.009066636 0.00923685 -0.06827011
000230 7d e5 67 bc fa 04 1e 3e bb ca cc 3e ee 43 71 bd
       -0.014153835 0.15431586 0.3999842 -0.058902673
000240 96 98 e2 bc 93 78 6d bc 60 47 c4 3b 6f a3 eb bc
       -0.02766065 -0.014494079 0.005989954 -0.028764455
000250 0e 0a 0b 3f 3c c8 3c 3c a1 a8 ec bc 57 65 36 bd
       0.5431222 0.011522349 -0.028889002 -0.04453024
000260 42 34 d3 be d0 25 1b bd 75 98 15 bc 12 d3 93 bd
       -0.41250807 -0.037877858 -0.009130587 -0.07217993
000270 fc 3c 94 3e 66 81 b0 bc 48 6e 94 bd 85 8f 77 bd
       0.28952777 -0.021546077 -0.07247597 -0.060439605
000280 5d f9 12 bd 99 70 fd bb 93 1d 65 3e 7a dc 80 bd
       -0.035882343 -0.00773437 0.22374563 -0.062920526
000290 80 32 58 3e dd 0c 09 3c 1f a4 b4 bc 6d f5 23 3f
       0.21113014 0.008364883 -0.022050915 0.64046365
0002a0 39 13 fe 3c c4 00 11 3e 28 d5 39 3b 77 c5 b3 bd
       0.031015025 0.14160448 0.002835581 -0.08777898
0002b0 55 5a b0 3c df 98 86 bc f0 19 44 bd dd 06 a4 bd
       0.021527449 -0.016430316 -0.0478763 -0.080091216
0002c0 af f7 6a 3c fd 40 28 3f 18 c7 93 bd da 80 25 3e
       0.014341279 0.65724164 -0.072157085 0.16162434
0002d0 cb 34 15 3e 73 9c b3 bc 3d 61 96 bd 67 5a f6 bd
       0.1457092 -0.021925187 -0.073427655 -0.12028962
0002e0 ac 40 81 bd 85 c2 54 3c 41 74 ef bc 10 35 f3 bb
       -0.06311163 0.01298583 -0.029230239 -0.007422097
0002f0 66 42 e1 bc d4 90 f6 3b b2 73 a6 bd 11 19 83 3c
       -0.027497482 0.007524589 -0.08127536 0.016003164
000300 0a 4a 97 be 93 86 66 3c 3e bf 7b be 16 27 c4 3b
       -0.29548675 0.014070171 -0.24584672 0.0059861047
000310 91 e7 ce bc 71 3a 6f be d7 90 9b 3c 1d cd 49 3e
       -0.025256904 -0.23362137 0.018989963 0.19707151
000320 2e 72 00 be ab 4c 16 bc bf 21 d1 3c a2 a1 9d 3e
       -0.12543556 -0.0091735525 0.025528787 0.3078738
000330 f7 8d 76 bd 3b a6 ab 3e 17 ef dd 3c 94 e6 62 3c
       -0.060193982 0.3352526 0.027091546 0.013848919
000340 93 9e 88 3c 8c 0e bd 3c ee a5 1c bd c8 f7 99 be
       0.016677177 0.023078226 -0.03824418 -0.30071855
000350 c9 4f 70 3c bf 9a 94 3e 63 06 86 bd fe 18 2e bd
       0.01466746 0.29024312 -0.06544187 -0.042504303
000360 f1 b4 0b 3d 54 43 86 bc 96 2a a2 bd 2c 9b 8a bd
       0.034108106 -0.016389526 -0.07918279 -0.06767878
000370 c6 65 8b 3c 6b 0e 0a be 5d 82 6a 3c 04 6a 3b 3e
       0.017016303 -0.13482063 0.014313308 0.1830216
000380 2d 7a f2 be 94 59 07 bd f4 ce c1 bd 2d b1 ca 3c
       -0.47358838 -0.033044413 -0.09463301 0.024742687
000390 8e a9 5e bd 8f b9 1f bc 1c cc d9 bc c1 44 03 bd
       -0.05436092 -0.00974883 -0.026586585 -0.03204799
0003a0 9e 75 76 bd 20 e7 90 3e e2 98 b8 bd df f4 a4 3e
       -0.060170762 0.28301334 -0.09013535 0.32218072
0003b0 36 36 f5 3c 31 0f 8b bd ad 24 4b bd 1c 6a bb bb
       0.029933076 -0.06790007 -0.049595524 -0.0057194363
0003c0 9e 89 48 bc 09 0e 23 bd 56 12 7e 3e 62 3b 79 bd
       -0.012239842 -0.039808307 0.24811682 -0.060847647
0003d0 4c 12 40 bd 35 65 43 bd ef 9a 07 3e f8 d6 94 bd
       -0.04689245 -0.04770394 0.13242696 -0.072675645
0003e0 ea e2 97 3c fb 65 fb bd 6f c9 ad ba cf b2 9d bd
       0.018540818 -0.122753106 -0.0013258884 -0.07700121
0003f0 a2 ee 24 bc a8 86 c4 3b ae b1 98 3e f0 8b 54 3e
       -0.01006666 0.0059974976 0.2982306 0.20756507

fc3.weight f4 [1, 300]
000000 b1 c2 50 bb d7 b5 66 3c 65 af 93 3b 0b bc 91 3c
       -0.0031854326 0.01408144 0.0045069926 0.017789861
000010 2f 24 ae bc 9a 23 5b 3a e5 4c cc 3c b5 d2 9d 3c
       -0.021257488 0.0008359492 0.02493901 0.019265512
000020 3e 7f aa bb 1f de 3b b9 16 8c 15 be ef 0d 13 bc
       -0.0052031567 -0.00017916456 -0.1460422 -0.00897549
000030 f5 96 8f bb 26 26 59 3d 68 d1 29 3d 5f 3e 77 3d
       -0.004382009 0.053014897 0.04145947 0.060362216
000040 00 63 dc 3b 5d 8f 9c 3d cd 64 78 bb 5b e2 ce bb
       0.006725669 0.07644532 -0.0037901879 -0.006313605
000050 e9 fd 60 ba d3 79 25 bb 0f 2d f9 3b 24 92 1f 3d
       -0.00085827574 -0.0025249615 0.0076042484 0.03895773
000060 05 8e 0b 3e 94 7f 09 3c b3 cb b4 3c 31 dd 63 bd
       0.13628395 0.008392233 0.022069788 -0.055630866
000070 c6 a5 c5 3b 9c 91 a9 bb ef 6e ad bb 66 6d d1 bb
       0.0060317246 -0.0051748287 -0.0052927653 -0.006391215
000080 ed 2a cb 3b ad 7c 72 bd dc 4a 21 3c ce b5 97 3c
       0.0062001855 -0.05920093 0.009844508 0.018519308
000090 3d 41 03 bb c7 25 ab bc 39 59 dd bb 2b 5d 40 bb
       -0.0020027899 -0.020892037 -0.006755021 -0.0029352407
0000a0 c8 bd 19 bb 3e f6 c5 3b 46 27 18 3c 45 9b 69 bd
       -0.0023459066 0.0060413172 0.009286707 -0.057032842
0000b0 f5 cb f5 3b 0a 24 d6 3d b0 0f 08 3d 36 c6 76 3c
       0.00750112 0.10456093 0.033218086 0.015061906
0000c0 f0 17 af 3b e3 08 50 3d a1 48 4f 3d c8 c3 bf bb
       0.0053434297 0.050789725 0.050606374 -0.0058521964
0000d0 a3 1b 30 3d 45 40 a5 3d 29 9a fa 3c f3 5b c4 ba
       0.042995106 0.08068899 0.030591087 -0.0014981016
0000e0 14 35 0b bb cd 88 06 3e 3c 4b 98 bd 3e d2 fe bb
       -0.0021241354 0.13138123 -0.07436225 -0.0077765277
0000f0 9f 48 b0 3c 1e 99 c7 ba db 0c 70 bd 9d 82 45 3d
       0.021519003 -0.0015228128 -0.05860601 0.048220266
000100 1b 21 00 bb 6d 9c a8 bb 1b fc eb 3b 40 a1 a8 3b
       -0.0019550982 -0.0051456005 0.007201684 0.0051461756
000110 8f b9 9f bb a4 cf 24 bc bb d1 30 3b 24 b8 28 3d
       -0.004874415 -0.010059271 0.0026980478 0.041191235
000120 0f 5b cf ba c8 89 44 3d a6 e0 5c bc 5b 73 ae bb
       -0.0015819984 0.04798296 -0.013481295 -0.00532381
000130 8c 2c 92 3b 31 7c 80 3d 58 3b 56 3c 04 d8 fa 3b
       0.004460877 0.06273688 0.013075672 0.0076551456
000140 64 21 c1 bb 70 9d b8 3a e9 a8 bf 3c 6d 3a 4a 3c
       -0.005893873 0.0014085006 0.023395972 0.012343031
000150 a2 6c 0f bc 2c 59 95 be 7b 67 17 bb 61 b0 25 ba
       -0.008753927 -0.29169595 -0.002310245 -0.0006320533
000160 57 2a 12 3d b3 6b 4f 3d 8c b9 a0 3b a1 07 f2 3b
       0.03568491 0.05063982 0.0049049314 0.0073861633
000170 0c ca 9b bc 96 d0 61 bb a7 a1 25 3d 8a 66 c0 3d
       -0.019017242 -0.0034456602 0.040437367 0.09394558
000180 66 33 23 3c 94 3d e1 3b c2 33 73 be cd 81 d5 3b
       0.009960985 0.0068737958 -0.23750213 0.0065157176
000190 ea 69 71 3c 78 c0 11 3c 2d 8d 36 3d b5 4b 34 bd
       0.014734725 0.008895986 0.04456823 -0.044017512
0001a0 95 04 04 3c 09 8d 1e bb 1a be 5c 3d aa 8c 76 3b
       0.008057733 -0.002419295 0.053892232 0.0037620463
0001b0 cf e4 10 bd d3 0e 22 3b d8 53 21 b9 48 85 72 3b
       -0.03537446 0.0024728074 -0.0001538539 0.0037005711
0001c0 ff 16 27 3d e6 bd 34 bb b4 b3 05 bc 74 2f f4 bb
       0.040793415 -0.0027579009 -0.00816052 -0.007451946
0001d0 96 1a d6 3c 1a 8b b6 bb e8 ac 2e 3b 8a e9 bf bb
       0.026135724 -0.0055707814 0.0026653353 -0.0058566974
0001e0 65 a8 29 3d d4 30 83 3d 1b 00 7c bc b1 74 04 3c
       0.04142036 0.064057976 -0.0153808845 0.008084462
0001f0 82 40 4e 3b e1 85 77 3c f8 97 d2 bb c6 f8 f2 3c
       0.0031471555 0.015107603 -0.0064268075 0.02965964
000200 4a 08 4b 3b dd 6c d2 3b dd 8f e2 3a 4c 33 87 bb
       0.0030980282 0.006421669 0.0017285306 -0.004125988
000210 2e 27 3f 3d 6d 25 0a 3e f3 30 14 3b a9 99 78 3b
       0.046668224 0.1349084 0.0022612184 0.0037933385
000220 bb 7c 54 3c 35 a8 a2 bd 23 a5 9d 3b 0d 2d 6d ba
       0.012969191 -0.07942239 0.0048109456 -0.00090475456
000230 62 25 45 3c bd e1 f1 3d ba 4b 71 3d 4a b7 31 3c
       0.012032839 0.11810634 0.05891011 0.010846922
000240 51 f5 d3 3b 25 ff 33 3d 22 f8 24 3b ad f7 6b 3b
       0.006468453 0.043944497 0.0025172313 0.003600578
000250 28 57 94 3d 56 07 dc bb 23 61 83 3d 16 ea 09 3c
       0.07243186 -0.0067147417 0.06415012 0.008417627
000260 d5 bc fe bd c6 87 e3 3b 0e a4 87 bc 92 8c f2 bb
       -0.124383606 0.0069436757 -0.01655772 -0.007402011
000270 d1 b9 32 3d 5a 93 cb 3a fe cf 28 b9 81 c1 78 bb
       0.04363424 0.0015531585 -0.00016099212 -0.0037957134
000280 97 89 17 3b 28 43 63 bb be 13 c5 3c 03 e2 30 3a
       0.0023122781 -0.003467748 0.024057265 0.00067475456
000290 1f b0 f4 3c 7b 63 e0 bb 9d 2e d3 3a f1 85 4e 3d
       0.029869137 -0.0068477965 0.0016111914 0.050420705
0002a0 b6 c7 49 ba 61 31 b4 3d b1 38 4e 3c d5 a9 69 bb
       -0.0007697301 0.08798481 0.0125867585 -0.0035654206
0002b0 38 5e 65 3c da 03 a5 39 2a cf a0 3b 63 88 f4 b8
       0.013999514 0.00031474122 0.0049075084 -0.00011660231
0002c0 4b 21 8a 3b ca 3e bc 3d 74 c8 1a b9 68 90 27 3d
       0.0042153946 0.091916636 -0.00014761259 0.0409092
0002d0 e5 08 a9 3d c7 4a 1c 3a db 97 9d ba 8d 75 09 bd
       0.082536496 0.00059620704 -0.0012023406 -0.03355937
0002e0 77 d3 06 3c 71 12 8b 3a 0a a2 f4 bb 6b 7d 37 bb
       0.008229128 0.0010610354 -0.0074656056 -0.002799834
0002f0 b0 96 d0 3b 51 2f 1b 3a 67 82 cd 3b 83 f4 a2 bb
       0.0063656196 0.00059198315 0.0062716487 -0.0049729957
000300 1f 85 00 bd 1a 8f c6 3c 02 33 e2 bd 4f dc 3a 3b
       -0.031376954 0.024238158 -0.11044885 0.0028512662
000310 15 f5 1d 3c e7 ae 43 bb f2 21 a4 ba 61 63 fb 3c
       0.009640952 -0.0029858889 -0.0012522324 0.030687036
000320 a7 97 f6 bc 1f 18 1d 3b b4 e1 8e 3d 6d 80 7e 3d
       -0.03010161 0.0023970676 0.06976643 0.062134195
000330 8f 5c 95 39 7c 7a 02 3e f7 ba 6e 3b 5d b0 8d 3d
       0.00028488456 0.12742037 0.0036427358 0.06918404
000340 66 7c 68 3b 74 f9 2f 3c dd af 3e bd eb 8d 8a bd
       0.0035474538 0.010740627 -0.046554435 -0.0676535
000350 fd 37 ba 3b d9 f5 14 3d 3f ab de bb 14 a4 f8 3b
       0.005682944 0.03636727 -0.0067953165 0.007587919
000360 9b 5e 7f 3d 61 e3 69 3d a4 3a 90 bd cd 9a 48 3c
       0.062346082 0.05710161 -0.07042435 0.012243939
000370 ca 29 87 3c 6d 76 26 bd 0f 66 09 3b 91 09 33 3d
       0.016499419 -0.040640283 0.0020965373 0.043710295
000380 00 d7 08 be ae e7 29 bb bc 59 1e bd d1 23 ac bb
       -0.13363266 -0.0025925445 -0.038659796 -0.005253293
000390 3a 8d f2 bb 7d 43 a9 3b 3b 90 81 3b 17 38 c9 bb
       -0.0074020894 0.005165516 0.003953961 -0.0061407196
0003a0 d8 d1 3f bb 44 ff 8b 3d b3 2a ae 3a cd f7 1f 3d
       -0.0029269364 0.068357974 0.0013287872 0.03905468
0003b0 f1 70 1b bb 88 c1 8f 3a 7f e4 c8 3b f2 40 63 3b
       -0.0023718441 0.0010967711 0.0061307545 0.0034676162
0003c0 a8 02 28 bb 6a 71 c6 3a a0 2b 4d 3d 78 0f af 3c
       -0.002563635 0.0015140001 0.050090432 0.02136968
0003d0 a4 d7 05 3c 53 75 df ba c2 7e c3 3c e6 af 08 ba
       0.0081690885 -0.0017048515 0.023864154 -0.0005214199
0003e0 3e c0 1b 3b 17 9f 22 bd 11 c9 04 3c 5e 4a 5e 3d
       0.0023765708 -0.0397025 0.008104579 0.05427014
0003f0 d0 81 ba bc b0 c2 51 bb 47 75 30 3d db 82 42 3d
       -0.022766978 -0.0032006912 0.043080594 0.047488075
